src/model_parameters/BaselineNN_model_parameters.pt (torch, 73495 bytes, 5 tensors)

weight f4 [128, 6]
0	0xbdaed8d4	-0.085374504
1	0xbe8e67b3	-0.2781349
2	0x3e94f054	0.29089606
3	0xbe8cd6aa	-0.27507526
4	0xbe8104d5	-0.25199
5	0xbe31fc26	-0.17381343
6	0xbe6f8ad3	-0.23392801
7	0x3df8d330	0.12149656
8	0x3eae5ab2	0.3405357
9	0xbe79005d	-0.24316545
10	0xbe9ec978	-0.31013083
11	0xbcbcd840	-0.023052335
12	0xbe180a16	-0.14847597
13	0x3ddd0750	0.107924104
14	0xbe925599	-0.2858093
15	0xbcf3a550	-0.029741913
16	0xbeb745f3	-0.35795555
17	0x3e6cc154	0.23120624
18	0x3da23c80	0.07921696
19	0xbec121f3	-0.37721214
20	0x3c3246c0	0.010881126
21	0xbe89295c	-0.26789367
22	0x3cc4c3f0	0.024019212
23	0xbdbc1360	-0.09183383
24	0x3e8a1be2	0.26974398
25	0xbef27f03	-0.47362527
26	0xbc806e21	-0.015677514
27	0xbd06a848	-0.03287533
28	0x3e3972e8	0.1811024
29	0xbe9b0d67	-0.30283663
30	0xbe69f3f1	-0.22846963
31	0x3e7bccbf	0.24589823
32	0xbe03f95d	-0.12888093
33	0xbed34959	-0.41266897
34	0x3d81c4cf	0.063363664
35	0xbe21d71c	-0.15804714
36	0xbdc95b37	-0.09831851
37	0xbda2db98	-0.079520404
38	0xbea0c4f4	-0.31400263
39	0xbdc36e09	-0.09542472
40	0x3db6c4bc	0.08924243
41	0x3e9bb76c	0.30413377
42	0xbeae77dc	-0.3407582
43	0x3eac2dbb	0.3362864
44	0xbda66416	-0.08124559
45	0xbea14545	-0.3149816
46	0xbe9ddcf4	-0.30832636
47	0x3ed452ec	0.41469514
48	0x3d314679	0.0432801
49	0xbee48e5f	-0.4463987
50	0x3ec23f70	0.37939024
51	0xbe597c5f	-0.2123885
52	0xbe07759b	-0.13228457
53	0x3e9ff364	0.3124038
54	0xbe5a3b09	-0.21311583
55	0xbc78ff41	-0.015197576
56	0x3e4c4f61	0.19952156
57	0xbd54ffb6	-0.052001677
58	0xbd8d1de4	-0.06890467
59	0x3c03770b	0.0080239875
60	0xbf05a370	-0.5220251
61	0x3e5b860b	0.21437852
62	0x3ddb0dd3	0.10695996
63	0xbe595272	-0.21222857
64	0xbd989a24	-0.07451275
65	0x3e1d9faf	0.15392946
66	0x3e969608	0.2941134
67	0x3dd60623	0.10450389
68	0x3e12b9e5	0.14328726
69	0x3dff6eb8	0.1247229
70	0xbe931880	-0.2872963
71	0xbeaebc1f	-0.341279
72	0x3e672cfb	0.22575752
73	0xbe2797d3	-0.1636651
74	0xbe2f2f55	-0.171079
75	0xbe6ef010	-0.23333764
76	0x3ebd9a11	0.37031606
77	0xbe9c3a70	-0.30513334
78	0x3e652c30	0.22380137
79	0x3b39d368	0.0028354768
80	0x3c37bf50	0.011215046
81	0x3d23cbc3	0.039989244
82	0xbed98687	-0.4248545
83	0xbe85174e	-0.25994343
84	0xbcf8825d	-0.0303356
85	0x3de62764	0.11237982
86	0xbef0a867	-0.4700348
87	0x3e95d899	0.29266813
88	0xbe1c3961	-0.15256263
89	0x3e90aff8	0.28259254
90	0xbe552c47	-0.20817672
91	0xbe6a35b4	-0.22872049
92	0x3e4509a0	0.19241953
93	0x3e5ad6a0	0.21370935
94	0x3e292f2e	0.16521904
95	0xbe70d909	-0.23520292
96	0x3dc0e969	0.094195195
97	0x3d926c7c	0.07149598
98	0x3d12c636	0.03583356
99	0x3c463fc9	0.0121001685
100	0xbcb322fe	-0.021867272
101	0xbeea599c	-0.45771492
102	0x3de63944	0.11241391
103	0x3e26c7e5	0.16287191
104	0x3e4a8c8b	0.19780175
105	0x3d8d71c3	0.06906464
106	0xbf01c422	-0.506899
107	0xbe0f6d18	-0.1400646
108	0xbe84bd17	-0.25925514
109	0x3e312286	0.17298326
110	0xbcf5ed3e	-0.030020352
111	0x3dc515d5	0.09623305
112	0x3e4338c4	0.19064623
113	0xbd176469	-0.036960993
114	0x3e959e06	0.29222125
115	0x3e76cac4	0.24100786
116	0xbeb913dd	-0.36147967
117	0xbe09ebe8	-0.13468897
118	0xbece8740	-0.40337563
119	0x3d648c68	0.055797964
120	0xbdb02007	-0.08599859
121	0x3ea1a3cc	0.3157028
122	0xbeb7e76c	-0.35918748
123	0xbc66b3aa	-0.014080921
124	0xbca9c058	-0.0207216
125	0x3d1e1fda	0.038604595
126	0x3d1d2be0	0.03837192
127	0xbeb5e153	-0.3552347
128	0xbe86afad	-0.26305905
129	0x3d227d80	0.039670467
130	0xbeaf6dd5	-0.34263483
131	0xbe39c731	-0.18142392
132	0xbeab2139	-0.33423784
133	0xbdcc46e0	-0.09974456
134	0x3ea5d48c	0.32388723
135	0x3dbfdba0	0.09368062
136	0xbec8c263	-0.39210805
137	0xbea43a56	-0.32075757
138	0xbe5f6b83	-0.21818356
139	0xbe9465d1	-0.2898393
140	0x3eacd443	0.33755693
141	0x3e9016f9	0.28142527
142	0xbf0905c8	-0.53524446
143	0x3eba8358	0.36428332
144	0x3eb9e875	0.36310163
145	0xbe7cf395	-0.24702294
146	0xbd677a99	-0.056513403
147	0x3df9a629	0.12189896
148	0x3e2eb542	0.17061332
149	0xbe9852c3	-0.29750642
150	0xbe56f2b1	-0.20991017
151	0xbdb44120	-0.08801484
152	0xbe74304f	-0.23846553
153	0xbe05c5e2	-0.13063768
154	0xbdca0f0c	-0.09866151
155	0x3eafa442	0.34305006
156	0xbf0679e2	-0.5252973
157	0x3dac3c65	0.08409957
158	0x3df348ca	0.11879118
159	0xbdb5cf67	-0.088774495
160	0x3e1a67f2	0.15078714
161	0xbe9595dd	-0.292159
162	0x3eba55ac	0.36393487
163	0x3bf1af55	0.0073756375
164	0xbde465b9	-0.111522146
165	0xbe12b7aa	-0.14327875
166	0xbea2ee95	-0.3182265
167	0xbea3871f	-0.31939027
168	0xbe2ed26c	-0.17072457
169	0x3ed1effb	0.41003403
170	0x3eb2f31a	0.34951097
171	0xbee2564a	-0.44206458
172	0xbdb502f3	-0.08838453
173	0xbee4763c	-0.44621456
174	0x3e83e019	0.2575691
175	0x3d949044	0.07254079
176	0xbe97e3d8	-0.29666018
177	0xbeda424f	-0.42628714
178	0x3e078ddd	0.1323771
179	0xbe978ebb	-0.29601082
180	0x3e4838f8	0.19552982
181	0xbe9bf704	-0.30461895
182	0x3dbae1f9	0.09125132
183	0xbd9378bd	-0.072007634
184	0xbdcec261	-0.100956686
185	0xbdd68d69	-0.104761906
186	0x3e3aea03	0.18253331
187	0x3e8757ef	0.26434276
188	0xbef78213	-0.48341426
189	0xbcde0b30	-0.027104944
190	0xbdf75974	-0.12077609
191	0xbe621402	-0.22077945
192	0x3e0eb7d2	0.1393731
193	0xbe9cde6c	-0.30638444
194	0x3de8f9bd	0.11375759
195	0x3d50f420	0.051014066
196	0xbe16c6a0	-0.14724207
197	0xbe223f23	-0.15844397
198	0xbd69945a	-0.057026245
199	0xbea0a847	-0.31378385
200	0xbd8e1c40	-0.06938982
201	0xbe85432a	-0.26027805
202	0x3edcf49d	0.43155375
203	0x3e9aecdf	0.30258843
204	0xbc7e832b	-0.015534203
205	0x3caf744f	0.021417765
206	0xbcb4ae30	-0.022055715
207	0xbe2ee875	-0.17080863
208	0xbe0de5ae	-0.13857147
209	0x3d73e40d	0.059543658
210	0x3dce39f1	0.10069645
211	0x3e6b7ce7	0.22996865
212	0xbef03db6	-0.46922082
213	0x3e5c34c7	0.21504508
214	0xbc66027a	-0.014038676
215	0xbebc9f07	-0.36840078
216	0xbdb73dda	-0.08947344
217	0xbdf1dd12	-0.11809744
218	0xbd873e5c	-0.06603691
219	0xbd5b3b6a	-0.05352346
220	0x3eb10060	0.345706
221	0x3c526072	0.012840377
222	0x3e083970	0.1330316
223	0xbe9b9751	-0.30388883
224	0x3e5bd2e3	0.21467166
225	0xbed43df3	-0.41453514
226	0x3e864f9b	0.2623261
227	0xbf0bfa6f	-0.54679006
228	0x3e59911c	0.21246761
229	0x3d835151	0.06411994
230	0x3df748ae	0.120744094
231	0xbf02bd9c	-0.5107057
232	0xbdeda6e0	-0.116040945
233	0x3b83ae9f	0.004018619
234	0x3d576393	0.052585196
235	0x3cc21259	0.02369039
236	0x3d863fff	0.06555175
237	0xbc3104c8	-0.010804363
238	0xbeb41664	-0.35173333
239	0x3ea10c7d	0.3145484
240	0x3de71471	0.11283196
241	0x3e122118	0.14270437
242	0xbdd93949	-0.106066294
243	0x3d0fedcd	0.035138894
244	0xbeb6b952	-0.35688263
245	0x3e8acb3e	0.27108186
246	0xbc6fc8a0	-0.014635235
247	0xbeae84cd	-0.34085694
248	0xbe8925ee	-0.2678675
249	0xbe4a15cd	-0.19734879
250	0xbec2d362	-0.38051897
251	0xbd931310	-0.0718137
252	0x3de03698	0.10947913
253	0x3cc0d9c8	0.023541346
254	0xbead232e	-0.33815902
255	0x3debc909	0.11512954

bias f4 [128]
0	0x3ebfc8c6	0.37457865
1	0xbecf6ff3	-0.40515098
2	0xbcd2c440	-0.025728345
3	0x3daaecc4	0.08345941
4	0x3deadbdd	0.11467717
5	0x3e97dd21	0.29660895
6	0x3e0615cc	0.13094252
7	0x3e43af49	0.19109835
8	0xbe802de7	-0.2503502
9	0xbe99eba4	-0.30062592
10	0x3e81ad1b	0.25327381
11	0xbe81dd79	-0.25364283
12	0x3ce5253a	0.027971853
13	0x3ea1fa65	0.31636348
14	0xbea60985	-0.32429138
15	0x3d0ee39e	0.03488504
16	0xbea9d8a3	-0.33173093
17	0x3d5ede00	0.054410934
18	0xbeee3c47	-0.46530363
19	0xbe8ae9c4	-0.27131474
20	0x3daaa8ee	0.08333002
21	0x3eb91db8	0.36155486
22	0xbec48b5f	-0.38387582
23	0xbe8a6fad	-0.27038327
24	0xbe8cf2d7	-0.27529022
25	0xbeb2158e	-0.3478207
26	0xbdb134b8	-0.086526334
27	0x3e84a6d4	0.2590853
28	0xbed3edce	-0.41392368
29	0x3e29a46c	0.16566628
30	0xbd56ecaa	-0.052471794
31	0x3d3d11e8	0.046159655
32	0x3ecbef22	0.3983088
33	0xbeaac3ba	-0.33352453
34	0x3f16f955	0.589742
35	0x3e979c7b	0.29611573
36	0xbe97fbb7	-0.2968423
37	0xbc13d2c7	-0.009022421
38	0xbd5f8ebf	-0.054579493
39	0xbd8267ea	-0.06367476
40	0xbd5a7fec	-0.053344652
41	0x3e91b008	0.28454614
42	0x3dff1a48	0.124561846
43	0x3e54a45c	0.20765823
44	0xbe2af0b7	-0.16693388
45	0xbefe1993	-0.49628887
46	0x3df8c0f0	0.12146175
47	0xbea82297	-0.3283889
48	0xbe9652b4	-0.29359972
49	0xbbc17f5b	-0.0059050745
50	0xbe0cddd2	-0.13756493
51	0xbe936f35	-0.28795782
52	0xbe1fe6b8	-0.15615356
53	0x3dbcd482	0.0922022
54	0xbe86321b	-0.26210102
55	0xbdbdc885	-0.09266762
56	0x3d513490	0.051075518
57	0xbe714f31	-0.23565365
58	0xbd2fee10	-0.042951643
59	0xbbf7ce64	-0.0075624455
60	0xbd40a84f	-0.04703551
61	0x3e5cb68b	0.2155401
62	0x3e42dbd8	0.19029176
63	0xbe133aaf	-0.14377855
64	0xbddb5354	-0.10709253
65	0xbdbd1b90	-0.09233773
66	0x3e612c04	0.21989447
67	0x3e9e5632	0.30925137
68	0x3d1941eb	0.03741638
69	0x3d8f316c	0.06991848
70	0xbeb3b08a	-0.35095626
71	0xbd808319	-0.06275005
72	0xbe8fb845	-0.28070274
73	0xbd6d79f0	-0.057977617
74	0xbe04b6a0	-0.12960291
75	0xbdf500c3	-0.11963036
76	0xbddd90a5	-0.108186044
77	0x3daa0b1c	0.083029
78	0x3dbd9c9e	0.09258388
79	0x3e525ee6	0.20544013
80	0x3e5a70e3	0.21332125
81	0xbd513533	-0.051076125
82	0x3ee350e5	0.44397655
83	0xbe5930bc	-0.21209997
84	0x3f014925	0.50502235
85	0xbead8b4c	-0.33895338
86	0x3e844d05	0.2584001
87	0x3e4308f7	0.19046389
88	0xbe8a9d0a	-0.27072936
89	0xbea4cc64	-0.32187188
90	0xbe8078a3	-0.2509204
91	0x3eeb024a	0.45900184
92	0x3e481f00	0.19543076
93	0x3db6d5a6	0.08927469
94	0x3eb60a0a	0.35554534
95	0x3df62bba	0.12020059
96	0x3e4339c6	0.19065008
97	0xbdbcfda1	-0.092280634
98	0xbe3a0d9e	-0.18169257
99	0x3d6013a1	0.05470622
100	0xbf01bfe4	-0.50683427
101	0xbea3669c	-0.31914222
102	0x3d28572b	0.041098755
103	0x3e91770f	0.28411147
104	0x3e083554	0.13301593
105	0xbe614112	-0.21997479
106	0x3ebab808	0.3646853
107	0xbdea705b	-0.11447211
108	0x3d01ad03	0.031659137
109	0xbe78c0e4	-0.24292332
110	0xbe149a8d	-0.14512081
111	0xbe95fe4f	-0.29295585
112	0x3cd1e4f0	0.025621861
113	0x3ec6684a	0.3875144
114	0x3e1ba509	0.15199675
115	0xbe29bedb	-0.16576712
116	0xbd4405e5	-0.047857184
117	0xbe831ab6	-0.25606316
118	0x3bb7e05d	0.005611463
119	0x3eb2d430	0.3492751
120	0x3e738740	0.23782063
121	0x3e2a1c0d	0.16612263
122	0x3efe1d59	0.49631765
123	0x3e0f8c51	0.1401837
124	0xbee51065	-0.4473907
125	0xbe5d2414	-0.21595794
126	0x3f15f461	0.5857602
127	0x3e327354	0.17426807

weight f4 [128, 128]
0	0x3ceff258	0.029290363
1	0x3d893f37	0.067015104
2	0xbba0c700	-0.004906535
3	0x3d4af996	0.04955443
4	0x3d872f90	0.06600869
5	0x3d99837f	0.07495784
6	0xbdb92894	-0.09040943
7	0xbe15a065	-0.14611967
8	0xbe5ee296	-0.21766123
9	0x3c9ba1c9	0.018998044
10	0xbc9c8b24	-0.019109316
11	0xbd1fe4ac	-0.039036438
12	0x3da69cba	0.08135362
13	0xbd9b66ae	-0.07587944
14	0x3c122ae0	0.008921355
15	0xbd4a9017	-0.04945382
16	0x3b647780	0.0034861267
17	0xbd806529	-0.06269295
18	0xbd295899	-0.04134426
19	0x3d56e21a	0.05246172
20	0xbdddaa5b	-0.10823508
21	0x3db4b68b	0.0882388
22	0xbd0543cb	-0.032535356
23	0x3c720272	0.014771091
24	0xbd815d1e	-0.06316589
25	0xbdae6064	-0.08514479
26	0x3d0f40b4	0.034973815
27	0xbcf1413a	-0.029450048
28	0xbe813c9f	-0.25241563
29	0xbdf24acb	-0.11830672
30	0xbd36d7cc	-0.044639394
31	0xbdce6545	-0.100779094
32	0xbdcd8d52	-0.1003672
33	0xbdbea081	-0.093079574
34	0x3dd2fea2	0.103024736
35	0xbd9dc54f	-0.07703649
36	0x3d143436	0.036182605
37	0x3dd3429b	0.10315438
38	0x3e32f8d5	0.17477734
39	0xbe2e24bb	-0.17006199
40	0x3c91987c	0.017772906
41	0x3db4f87d	0.08836458
42	0xbe97422b	-0.2954267
43	0x3b679400	0.0035336018
44	0xbdefd272	-0.11710061
45	0xbe5774eb	-0.21040694
46	0x3c31e7f0	0.010858521
47	0xbdb3edc6	-0.08785586
48	0x3cf52550	0.029925019
49	0xbd8cbabf	-0.068715565
50	0x3d8305c7	0.06397586
51	0xbca9f780	-0.0207479
52	0x3cb33ecf	0.021880535
53	0xbe025dd4	-0.12731105
54	0xbc8fd833	-0.017559147
55	0xbb074f2c	-0.0020646555
56	0x3b2c8de0	0.0026329681
57	0x3d77480a	0.060371436
58	0x3d3b0826	0.045662068
59	0xbe079d2f	-0.13243555
60	0xbd99b74b	-0.075056635
61	0xbe00bf5c	-0.12572998
62	0xbc949034	-0.018135168
63	0xbdabf452	-0.0839621
64	0xbc92d0f0	-0.017921895
65	0xbd9d8388	-0.07691103
66	0x3d46e50e	0.048558287
67	0xbd83c2e2	-0.06433655
68	0xbce6abd6	-0.02815811
69	0xbe04bf70	-0.12963653
70	0xbd92622a	-0.071476296
71	0x3d10bcd9	0.03533635
72	0x3ac5d0c0	0.001509212
73	0x3cf98794	0.030460157
74	0x3d2e2c2e	0.0425226
75	0x3c04ef2f	0.008113666
76	0xbdd22f2d	-0.10262904
77	0xbe2740c2	-0.16333297
78	0xbdaac808	-0.08338934
79	0xbdd0cfb7	-0.101958685
80	0xbdeffa27	-0.11717635
81	0xbdc6face	-0.09715806
82	0xbdbdfc08	-0.09276587
83	0xbdb8e013	-0.09027114
84	0x3ddea2d0	0.10870898
85	0xbd9f84fc	-0.07789037
86	0xbca242f1	-0.01980731
87	0xbd8d25ca	-0.06891973
88	0xbd83ffa6	-0.064452454
89	0xbdaa84f2	-0.083261386
90	0x3d8296fd	0.06376455
91	0xbc35b423	-0.011090311
92	0xbdda8772	-0.106703654
93	0x3c77ac48	0.015116759
94	0x3d1bcdda	0.038038112
95	0x3da48964	0.08034018
96	0xbda65a4c	-0.081226915
97	0xbd80cfb9	-0.0628962
98	0x3d850d96	0.06496732
99	0xbdc8e7ff	-0.09809875
100	0x3c59760d	0.013272774
101	0x3d376522	0.044774182
102	0xbe153305	-0.14570244
103	0xbdd68686	-0.10474877
104	0xbd7fdfc7	-0.06246927
105	0x3d96ace7	0.07357197
106	0x3cf18374	0.029481627
107	0x3d862ada	0.06551142
108	0xbc94ba58	-0.018155262
109	0x3d5eefae	0.054427795
110	0xbc304cba	-0.010760481
111	0xbe41be3b	-0.18920223
112	0xbd4ad87f	-0.049522873
113	0x3e426a2b	0.18985812
114	0x3dd6ae6d	0.10482488
115	0xbdb234b8	-0.087014616
116	0x3d218986	0.039437793
117	0xbe2e193e	-0.17001817
118	0x3d50169c	0.050802812
119	0x3e308e40	0.17241764
120	0x3e1ca2d7	0.15296493
121	0xbe582572	-0.21108034
122	0xbdc365a3	-0.0954087
123	0x3d83836b	0.0642155
124	0x3d1b5726	0.037924908
125	0x3c9b28d9	0.018940376
126	0xbbfbc99e	-0.0076839468
127	0xbdaf7416	-0.085670635
128	0xbbd9c0f0	-0.0066453144
129	0xbce00db8	-0.027350292
130	0xbd8962ed	-0.06708322
131	0x3d40a4b2	0.047032066
132	0xbd86e829	-0.0658725
133	0x3dad7953	0.084704064
134	0xbd2af134	-0.041733935
135	0x3bf61a47	0.0075104567
136	0x3ccb9702	0.02485228
137	0x3d9caadf	0.076497786
138	0xbe154499	-0.14576949
139	0xbe4c87c3	-0.19973664
140	0xbda42142	-0.08014156
141	0xbdc0d291	-0.09415162
142	0x3df09e66	0.11748962
143	0xbae07565	-0.001712483
144	0x3d0c555b	0.03426109
145	0x3d26f386	0.040759586
146	0x3c8ac78a	0.01694085
147	0xbca36640	-0.019946218
148	0x3e1b0a60	0.15140676
149	0x3c6cda38	0.014456324
150	0x3d62169e	0.05519735
151	0xbca15e1b	-0.019698193
152	0xbea3961f	-0.3195047
153	0xbd5bffc6	-0.05371072
154	0xbcc94e90	-0.024573594
155	0x3da0fc47	0.07860618
156	0x3dbe07db	0.09278842
157	0x3ccb2b38	0.024800882
158	0x3d9c2237	0.076237135
159	0xbd3e3b3c	-0.04644321
160	0x3e89f33f	0.26943395
161	0xbe0469f8	-0.12931049
162	0x3d2cfe97	0.042234983
163	0x3d885e42	0.06658603
164	0xbde93235	-0.11386529
165	0x3dc4f624	0.0961726
166	0xbe1caa1c	-0.15299267
167	0x3d47f17c	0.04881428
168	0xbd9c8a40	-0.076435566
169	0xbcf9cef6	-0.030494194
170	0xbe0559a7	-0.13022481
171	0x3cc69c38	0.024244413
172	0x3e65750e	0.22407934
173	0xbdd75804	-0.105148345
174	0x3d9ff26f	0.078099124
175	0xbd983bb0	-0.074332595
176	0xbd8dab86	-0.06917481
177	0x3d750d9e	0.05982744
178	0xbc34c3b0	-0.011032984
179	0x3c85f7b0	0.016353458
180	0x3e1858be	0.14877602
181	0xbe2fd68f	-0.17171691
182	0x3d3512d6	0.044207416
183	0xbbf86c86	-0.0075812964
184	0xbd490648	-0.049078256
185	0xbd702388	-0.058627635
186	0xbd206c1c	-0.0391656
187	0xbbf1906b	-0.0073719523
188	0xbb15e0ec	-0.002286966
189	0x3df65547	0.12027984
190	0xbd0a77ce	-0.03380566
191	0x3c125526	0.008931434
192	0xbcd5ecf4	-0.026113965
193	0x3da38e25	0.07986096
194	0x3d9be7dd	0.07612584
195	0xbc4e5b28	-0.0125949755
196	0xbe11fd48	-0.14256775
197	0x3bbb603e	0.00571826
198	0x3a2a5b80	0.000649862
199	0xbd33c8a3	-0.043892514
200	0x3d348672	0.04407353
201	0x3dabd07b	0.08389374
202	0xbbf80180	-0.007568538
203	0xbdac6f8d	-0.08419714
204	0x3b2ed256	0.0026675663
205	0x3e14cb32	0.14530638
206	0x3d868513	0.06568351
207	0xbe1ab921	-0.15109684
208	0x3e38ad24	0.18034798
209	0x3e1e50f1	0.15460564
210	0x3b72b044	0.0037031332
211	0xbd1e50f0	-0.038651407
212	0x3c88c4bf	0.016695378
213	0x3d2ece4a	0.0426772
214	0xbe12eebe	-0.14348885
215	0x3d8ff198	0.07028502
216	0xbddf10ff	-0.108919136
217	0xbe122ba6	-0.14274463
218	0xbd677102	-0.056504257
219	0xbb661719	-0.0035108982
220	0xbd99c4d8	-0.07508248
221	0xbd59425e	-0.05304181
222	0x3b720080	0.0036926568
223	0xbb7239e0	-0.0036960766
224	0x3c746a30	0.014917895
225	0xbc6114a0	-0.013737828
226	0xbc8eae88	-0.017417207
227	0xbcde362d	-0.027125442
228	0x3e0e5b01	0.13901903
229	0xbda32b3e	-0.07967232
230	0xbd4e60da	-0.050385334
231	0xbd2a7f01	-0.041625027
232	0xbdc02241	-0.093815334
233	0x3d55fe33	0.052244376
234	0x3cdf52e8	0.027261212
235	0xbd045c78	-0.032314748
236	0xbc7004fb	-0.014649625
237	0xbc8f71dc	-0.017510347
238	0x3cfbd67e	0.030741926
239	0x3d8c5f23	0.068540834
240	0xbd5986fa	-0.05310724
241	0xbcdec5ef	-0.027193991
242	0x3d5b4e6b	0.053541582
243	0xbda8bc8d	-0.08239088
244	0x3e2ad496	0.16682658
245	0x3cd6cb90	0.026220113
246	0x3ca5895a	0.020207096
247	0xbe2fe5e5	-0.17177542
248	0xbe087eb7	-0.13329588
249	0x3e46171a	0.1934475
250	0x3ecb6b88	0.39730477
251	0x3db5e565	0.08881644
252	0x3d36f274	0.044664815
253	0xbcc69e86	-0.024245512
254	0xbdfe791c	-0.124254435
255	0x3b9e41c0	0.0048296154

bias f4 [128]
0	0xbd1715ec	-0.03688614
1	0xbd47d70e	-0.048789077
2	0x3d8135f4	0.06309119
3	0x3dfd517e	0.12369059
4	0x3cd538b7	0.02602802
5	0x3d04c46e	0.032413892
6	0x3da43dd2	0.08019604
7	0xbbe08f60	-0.006853029
8	0xbd276e96	-0.040876947
9	0x3c6130fe	0.013744591
10	0x3d6f673b	0.058448058
11	0x3e069dc6	0.13146123
12	0xbcfa8695	-0.030581752
13	0x3d6e686c	0.058205053
14	0xbd919c0b	-0.07109841
15	0xbdd17971	-0.10228241
16	0x3c9ea754	0.019366898
17	0xbc11e3ae	-0.008904381
18	0x3da8b3da	0.08237429
19	0xbd0dec2d	-0.034649063
20	0x3d79ab5e	0.060954444
21	0x3c109d27	0.008826531
22	0x3e11e4fe	0.1424751
23	0xbc49770a	-0.0122964475
24	0x3daec5ef	0.085338466
25	0x3dfa891b	0.12233182
26	0xbdf56373	-0.11981859
27	0xbc70e5dc	-0.01470324
28	0xbe51d055	-0.20489629
29	0xbdb97749	-0.09055955
30	0x3df01aa8	0.11723834
31	0x3d2c7578	0.042104214
32	0xbcff9a31	-0.031201454
33	0x3d542f66	0.051803015
34	0xbe20975b	-0.15682738
35	0xbcbd0a55	-0.023076216
36	0xbd0a33fa	-0.033740975
37	0xbca2854b	-0.01983895
38	0xbcc73ce6	-0.02432103
39	0x3d3af3f3	0.045642804
40	0x3c20a56e	0.0098050665
41	0xbcec4a0c	-0.028843902
42	0xbde7856e	-0.113047466
43	0xbe13d9f8	-0.14438617
44	0x3d8a1c41	0.0674367
45	0xbd3ce1a7	-0.046113636
46	0xbca31cc7	-0.019911183
47	0xbd935c46	-0.07195334
48	0x3d956ddb	0.07296344
49	0xbd0128eb	-0.031533163
50	0xbd5c3262	-0.053758986
51	0x3c5b4041	0.013382019
52	0x3ddb6f8a	0.10714634
53	0xbe2fe566	-0.17177352
54	0xbd0c8ed2	-0.03431589
55	0x3d485f5a	0.04891906
56	0x3e07a540	0.13246632
57	0xbdb82ea4	-0.08993271
58	0x3d010ab9	0.031504367
59	0xbe1edb09	-0.15513243
60	0xbe281f9d	-0.1641831
61	0x3d25a700	0.040442467
62	0x3d603f04	0.054747596
63	0x3d5b5550	0.053548157
64	0xbcbf2ae4	-0.023335882
65	0xbe34a7bd	-0.17642112
66	0xbcd45949	-0.02592148
67	0x3ceca66d	0.028887952
68	0x3b3432ea	0.0027496167
69	0x3d4a8d02	0.04945088
70	0xbe1a7889	-0.15085043
71	0x3d106f50	0.035262406
72	0xbd7d4633	-0.061834525
73	0xbe29b4e5	-0.16572912
74	0x3c2ae996	0.010431668
75	0xbe29843c	-0.1655435
76	0x3e1f0531	0.15529324
77	0xbe05ce43	-0.13066964
78	0xbe0f569b	-0.13997881
79	0xbd229456	-0.039692245
80	0xbd6296bb	-0.05531953
81	0xbd56341f	-0.0522958
82	0xbdcd295d	-0.10017655
83	0xbde3ecfa	-0.11129184
84	0x3d4c3e3a	0.04986403
85	0xbd1d93d2	-0.03847105
86	0xbdabb0b0	-0.0838331
87	0x3c79bd2a	0.015242854
88	0x3b12f16b	0.0022421728
89	0xbd94849c	-0.07251856
90	0xbc7b8b20	-0.015352994
91	0xbd62b9d2	-0.055352993
92	0xbcb9ddf6	-0.022688847
93	0xbde88495	-0.11353413
94	0xbc609b61	-0.01370892
95	0xbdb1c12f	-0.08679425
96	0x3d5dfbe7	0.05419531
97	0xbd8682ec	-0.0656794
98	0xbd3559b9	-0.04427502
99	0xbbe4ea08	-0.0069859065
100	0xbcda7ce6	-0.026670884
101	0xbdc24c55	-0.094872154
102	0xbc259267	-0.010105706
103	0xbdbbcc64	-0.09169844
104	0x3d9fdf2a	0.07806237
105	0x3e16ee08	0.14739239
106	0x3c3ad939	0.011404329
107	0x3d125d28	0.035733372
108	0x3dc97cd3	0.098382615
109	0x3d831b3a	0.064016774
110	0x3d4313c0	0.047626257
111	0xbd47054b	-0.048589032
112	0x3b903035	0.004400278
113	0xbe24a3b6	-0.16078076
114	0x3d6ef2c2	0.05833698
115	0xbbfd4f1f	-0.0077303792
116	0x3d581079	0.052750085
117	0x3ca85661	0.020549001
118	0xbce9efc1	-0.028556706
119	0x3d28813b	0.04113887
120	0xbdbaabec	-0.09114823
121	0x3d556b50	0.052104294
122	0x3c81b303	0.01583243
123	0xbb6f016f	-0.003646936
124	0xbe4e4f58	-0.20147455
125	0xbe0c7edd	-0.1372027
126	0x3ccf94c0	0.025339484
127	0xbda55222	-0.08072306

weight f4 [1, 128]
0	0xbdc7928d	-0.09744749
1	0x3cbab52b	0.022791466
2	0x3c9713f6	0.018442135
3	0xbd7c2340	-0.061557055
4	0x3c778c25	0.015109097
5	0x3d008991	0.031381194
6	0x3c871612	0.016490016
7	0x3c026a69	0.0079599405
8	0x3bb38de3	0.0054795607
9	0x3ccf291d	0.025288159
10	0xbd90098e	-0.070330724
11	0x3c649d21	0.013953478
12	0x3d248f66	0.040175818
13	0xbd843ac1	-0.06456519
14	0xbc1562e1	-0.009117813
15	0xbcf8d422	-0.03037459
16	0x3c19a742	0.009378256
17	0x3d276d9a	0.04087601
18	0x3c36fb00	0.0111682415
19	0x3d41a8e0	0.047280192
20	0xbbbc5b82	-0.0057482133
21	0xb9fa3118	-0.00047720294
22	0x3c905e68	0.017623141
23	0x3ce1544b	0.027506014
24	0x3d049f44	0.03237845
25	0x3cb9aa95	0.022664348
26	0xbd3a12b0	-0.045427978
27	0x3d114c8a	0.035473384
28	0xbbe6c1d5	-0.0070421495
29	0xbcf4bd9b	-0.029875567
30	0xbd96bc77	-0.073601656
31	0x3b66fb56	0.0035245023
32	0x3d04335c	0.032275543
33	0x3d2dfedf	0.042479392
34	0xbd52fb6d	-0.05150931
35	0xbb074cd9	-0.002064517
36	0x3d12878e	0.035773806
37	0xbb05eaac	-0.0020434065
38	0xbb6c1653	-0.0036024048
39	0x3c7fd707	0.015615231
40	0x3bd2163e	0.006411343
41	0x3c47a6b8	0.012185745
42	0x3d7b8f43	0.061415922
43	0xbcf572fa	-0.029962052
44	0x3ca7ba35	0.020474533
45	0x3c48fb12	0.012266891
46	0xbb4f1e42	-0.0031603728
47	0xbd2e9661	-0.04262388
48	0x3c82d0e2	0.015968744
49	0x3c34da3e	0.011038361
50	0x3d2b6f74	0.041854337
51	0x3c86084d	0.01636138
52	0x3c6a1002	0.014286043
53	0xbd206579	-0.039159272
54	0xbdbaeb1d	-0.091268755
55	0x3caee806	0.021350872
56	0xbdb32efe	-0.087491974
57	0x3b2b64e3	0.0026152662
58	0xbc12c674	-0.008958448
59	0xbe93f6e1	-0.2889929
60	0x3b7b5069	0.0038347489
61	0x3d17d623	0.03706945
62	0x3c872d5e	0.016501125
63	0x3caf6364	0.021409698
64	0x3cbe0d9d	0.02319985
65	0xbde45830	-0.11149633
66	0x3c715789	0.014730343
67	0xbc27f048	-0.010250159
68	0x3d14be4b	0.03631429
69	0x3ad9f60c	0.0016629114
70	0x3c0404e2	0.008057805
71	0xbba64946	-0.005074653
72	0x3cfce376	0.03087018
73	0xbe8ecdcf	-0.27891394
74	0x3ccdd397	0.025125308
75	0x3d9fada4	0.07796791
76	0xbe0d1501	-0.13777544
77	0xbd0b1714	-0.033957556
78	0xbe29297f	-0.16519736
79	0x3c26d688	0.010182984
80	0xbd630dd9	-0.055433128
81	0xbd238139	-0.03991816
82	0xbc9b14d3	-0.018930828
83	0x3c07cb89	0.008288273
84	0x3b18cdea	0.0023316094
85	0x3c68feea	0.0142209325
86	0xbd5085d6	-0.050908886
87	0x3cb845d1	0.022494229
88	0x3bc4f5ab	0.006010731
89	0x3c94f58c	0.018183492
90	0x3d0625ea	0.032751
91	0x3cbb2184	0.02284313
92	0x3b84d432	0.004053616
93	0xbc0fc0b8	-0.008773975
94	0x3cec988f	0.02888134
95	0xbcf8de88	-0.030379549
96	0x3c7b779b	0.01534834
97	0xbe038478	-0.12843502
98	0x3d0ae6c0	0.033911467
99	0x3c67f0ec	0.014156561
100	0x3c75bbb4	0.014998365
101	0xbe1818c5	-0.14853199
102	0x3d38b58b	0.045095008
103	0xbd042f5a	-0.03227172
104	0x3cbbec6e	0.022939887
105	0x3b6d134d	0.0036174834
106	0x3cf783f7	0.030214293
107	0x3c031989	0.0080016935
108	0x3b928075	0.0044708797
109	0x3c6ebab3	0.01457088
110	0x3ba3d0e1	0.0049992655
111	0x39164f6c	0.00014334702
112	0x3bd604a5	0.0065313154
113	0xbcfaaa10	-0.03059867
114	0xbd91fb51	-0.07128013
115	0x3cf35fa7	0.029708697
116	0xbcb08dc2	-0.02155197
117	0x3ca2cbb0	0.019872516
118	0x3cd59690	0.02607277
119	0x3bbaa77b	0.0056962348
120	0xbb1fdb3a	-0.0024392144
121	0xbd7319a1	-0.059350614
122	0x3b211c2c	0.0024583442
123	0xbc9a0c18	-0.018804595
124	0xbd7a6cc9	-0.0611389
125	0xbb047797	-0.0020212883
126	0x3bf0ddb1	0.0073506464
127	0xbe47f6b0	-0.19527698
