src/model_parameters/MaskedNN_model_parameters.pt (torch, 18975 bytes, 3 tensors)

weight f4 [256, 14]
-0.07388698 -0.18208203 0.1724385 -0.19807513 -0.18295921 -0.1317807 -0.1711288 0.07953817
0.20493989 -0.15918913 -0.20302828 -0.0150913 -0.097200334 0.0706529 -0.1762761 0.16415775
-0.23866254 0.1629055 0.09390093 -0.10774227 -0.1782135 0.0012293758 -0.31643575 -0.068272404
0.20568575 -0.020411497 0.22203895 -0.25453666 0.26976702 -0.13707887 -0.14805791 0.17403845
-0.1216787 -0.14388545 -0.05088091 -0.1063769 0.043594193 0.11115292 -0.2561569 0.19380793
0.13560072 -0.042402126 -0.26302898 0.2765041 -0.06277649 -0.06334638 -0.0878255 0.24500757
0.09876952 -0.04401276 0.21938662 0.17998177 -0.2464774 0.29310587 0.02331771 -0.3547691
0.17526561 -0.021396363 0.00871406 0.08418509 -0.2787345 0.19120397 0.053720124 -0.11632715
0.082967475 0.013345909 0.102983594 0.02390214 0.030712707 0.19134896 -0.04359265 0.012135271
0.25617784 -0.034675527 0.022716261 -0.033548582 0.08073124 -0.073640466 0.11517173 0.12761547
0.0052298107 0.2728241 -0.17623603 -0.56947637 -0.0074191377 0.056066122 -0.3089189 0.18987103
-0.05057292 0.12783863 -0.19373958 -0.23309208 0.06971404 0.12071638 0.11190127 -0.21898894
0.0408608 0.14800018 -0.035621446 -0.05469127 -0.030824602 -0.22055458 0.17324485 0.17400819
0.35389405 0.24208404 -0.0699004 0.222424 -0.20189549 0.26005593 0.13935561 -0.24336307
0.12603414 0.06746094 0.17157243 0.12657133 -0.18745038 -0.05956849 -0.13761285 0.20423737
0.15358298 0.48245823 0.06766316 0.12585407 0.08476789 -0.23405525 0.025120318 -0.2325557
-0.17221257 0.0259704 -0.22430715 -0.118769825 -0.21881002 -0.06529814 0.21203396 0.06132838
-0.25669494 -0.2099851 -0.07696572 -0.2085894 0.14864579 0.19870882 -0.23766387 0.16244951
0.16847487 -0.14833719 0.14675978 0.32434365 0.23164862 -0.096441716 0.018991051 0.22841233
-0.18176572 -0.6664822 -0.20612116 0.19257855 -0.2351103 0.114546746 0.10972678 0.006769074
0.11884228 0.009148791 0.09166489 -0.12927933 -0.13450493 0.0030295206 -0.31797156 -0.19219185
-0.1982859 0.26806223 0.19539309 -0.27771634 0.06605768 -0.19348565 -0.010503104 0.101368204
-0.28519484 -0.21422884 -0.09277887 0.017843105 0.15956399 -0.37292644 0.062104315 -0.03065188
-0.010970265 -0.0020302313 0.12386323 0.10456621 -0.057311513 0.0820253 -0.06672576 -0.0086776605
0.05261397 0.17438644 0.10092426 -1.1281954 -0.06847812 -0.1926385 -0.09500636 -0.2480057
-0.026247695 -0.16994151 0.24985316 0.13493091 0.020302415 0.03317362 -0.002100587 -0.09367685
-0.087795034 0.06293604 0.040414322 0.12331664 -0.25365192 0.13937303 -0.09513478 -0.26058722
-0.25116408 0.019149449 -0.06250843 0.017995449 0.17200525 0.24150659 0.27349478 -0.23574291
0.16138719 -0.15751047 0.19341691 -0.24153423 0.15823041 0.071570255 0.25966313 0.12768236
-0.037178162 0.28148627 -0.037000813 0.32808572 0.117160805 -0.44825307 -0.18016641 0.21563363
0.0083478205 0.11198962 -0.15264347 0.045896478 -0.054562487 0.0638672 0.00937174 -0.096153796
-0.08746793 0.04166829 -0.2990514 -0.29346082 0.051363777 0.010248833 -0.10089843 0.086004555
00000000: 0f52 97bd b673 3abe b893 303e 35d4 4abe
00000010: a959 3bbe 85f1 06be 633c 2fbe e8e4 a23d
00000020: c3db 513e 7a02 23be a5e6 4fbe 8041 77bc
00000030: f810 c7bd 78b2 903d b981 34be f818 283e
00000040: f463 74be b3d0 263e 214f c03d fba7 dcbd
00000050: 9a7d 36be 0223 a13a de03 a2be 67d2 8bbd
00000060: 499f 523e 0336 a7bc 2e5e 633e a152 82be
00000070: e71e 8a3e 675e 0cbe 7e9c 17be 2337 323e
00000080: af32 f9bd b556 13be 8068 50bd 22dc d9bd
00000090: d38f 323d 24a4 e33d ff26 83be 9675 463e
000000a0: eada 0a3e daad 2dbd bcab 86be f291 8d3e
000000b0: f690 80bd bfbb 81bd dbdd b3bd 44e3 7a3e
000000c0: ad47 ca3d b946 34bd e3a6 603e 244d 383e
000000d0: 9264 7cbe f911 963e c804 bf3c 4ca4 b5be
000000e0: d478 333e 6d47 afbc 6bc5 0e3c 3c69 ac3d
000000f0: 4ab6 8ebe f9ca 433e a209 5c3d ee3c eebd
00000100: daea a93d cda8 5a3c 10e9 d23d 6cce c33c
00000110: 3799 fb3c fbf0 433e 358e 32bd 04d3 463c
00000120: be29 833e ed07 0ebd 7417 ba3c 3d6a 09bd
00000130: 6c56 a53d d0d0 96bd 28df eb3d a1ad 023e
00000140: d55e ab3b 9aaf 8b3e 3877 34be 34c9 11bf
00000150: 3d1c f3bb 97a5 653d 9e2a 9ebe 8d6d 423e
00000160: 8d25 4fbd 21e8 023e ab63 46be b1af 6ebe
00000170: 3cc6 8e3d 263a f73d 7e2c e53d a33e 60be
00000180: a75d 273d 5c8d 173e cbe7 11bd f403 60bd
00000190: e083 fcbc 0fd9 61be 1967 313e 342f 323e
000001a0: 9a31 b53e e1e4 773e f127 8fbd 1ec3 633e
000001b0: b1bd 4ebe 0d26 853e 3db3 0e3e 2b34 79be
000001c0: 180f 013e f628 8a3d afb0 2f3e ea9b 013e
000001d0: fef2 3fbe 17fe 73bd 62ea 0cbe 9a23 513e
000001e0: db44 1d3e c404 f73e fc92 8a3d e4df 003e
000001f0: ca9a ad3d 2eac 6fbe 20c9 cd3c 1523 6ebe
00000200: 7e58 30be e0bf d43c c6b0 65be 983d f3bd
00000210: bc0f 60be 08bb 85bd 6e1f 593e 7833 7b3d
00000220: 856d 83be 5606 57be 34a0 9dbd 7698 55be
00000230: 9a36 183e 537a 4b3e 285e 73be 2a59 263e
00000240: ad84 2c3e b4e5 17be 3248 163e 5f10 a63e
00000250: 4c35 6d3e 3c83 c5bd 1f93 9b3c ece4 693e
00000260: cb20 3abe 949e 2abf 6d11 53be 5033 453e
00000270: c1c0 70be 7c97 ea3d 6fb8 e03d 1ccf dd3b
00000280: 9563 f33d d0e4 153c cdba bb3d cd61 04be
00000290: a9bb 09be ec8a 463b 2bcd a2be f1cd 44be
000002a0: 750b 4bbe 743f 893e 2015 483e d630 8ebe
000002b0: 4049 873d 1a21 46be 3615 2cbc 229a cf3d
000002c0: 0f05 92be ce5e 5bbe d902 bebd b42b 923c
000002d0: be64 233e 37f0 bebe 1861 7e3d a719 fbbc
000002e0: a0bc 33bc a10d 05bb 01ac fd3d cf26 d63d
000002f0: 7abf 6abd e1fc a73d 84a7 88bd bf2c 0ebc
00000300: bf81 573d 5c92 323e 61b1 ce3d b568 90bf
00000310: 423e 8cbd 0743 45be b292 c2bd 35f5 7dbe
00000320: 6805 d7bc 2605 2ebe 82d9 7f3e 542b 0a3e
00000330: 4051 a63c 10e1 073d 00aa 09bb a6d9 bfbd
00000340: e2cd b3bd 9ce4 803d 7d89 253d 6f8d fc3d
00000350: aade 81be ceb7 0e3e 06d6 c2bd b06b 85be
00000360: 9498 80be 4edf 9c3c 6b04 80bd 316b 933c
00000370: 2522 303e 814d 773e 8207 8c3e 9766 71be
00000380: af42 253e 6d4a 21be 150f 463e c054 77be
00000390: 2707 223e 6d93 923d 91f2 843e 2abf 023e
000003a0: 2148 18bd f81e 903e 2a8e 17bd dafa a73e
000003b0: 01f2 ef3d 6d81 e5be 8b7d 38be 10cf 5c3e
000003c0: 4cc5 083c d05a e53d 924e 1cbe f2fd 3b3d
000003d0: ea7c 5fbd cecc 823d ed8b 193c 48ec c4bd
000003e0: 6322 b3bd 5eac 2a3d 441d 99be 7f40 96be
000003f0: d362 523d b9ea 273c d6a3 cebd 2823 b03d

bias f4 [256]
-0.090560734 0.1385248 0.17324235 0.182947 -0.29283932 -0.27671406 -0.18074138 0.14000328
0.108049795 -0.2466445 0.09061737 -0.23538391 -0.07660335 0.0045547816 -0.1871976 0.19775932
0.13344654 -0.23411934 0.20433478 -0.41119826 0.08777192 -0.28874916 0.20689146 0.20036586
0.08036132 -0.17269148 -0.26686424 0.01665397 0.10860051 0.06625198 -0.010740577 -0.048551142
-0.07735019 0.21135184 0.044443503 0.14010136 -0.022255778 0.11901836 -0.24812745 0.12207284
-0.015100143 -0.08063411 -0.2760856 0.19137295 0.0197665 0.05849226 0.19982994 -0.20762764
-0.06332209 0.15396722 0.021947095 0.07891767 -0.27990115 0.1955155 0.07610358 -0.24335274
-0.22281328 0.20035237 0.08826247 0.12475576 -0.0482802 0.16517004 -0.044217933 -0.24130431
0.028813867 -0.2882781 -0.05698118 -0.19859295 -0.1663234 0.01654855 0.15453747 -0.13348258
0.17248441 -0.07406638 0.07680935 0.013843707 -0.08047146 0.04396367 0.24765716 0.21152553
-0.003047049 0.14430052 0.020559698 0.06444798 -0.10774391 -0.06342448 -0.25092274 0.10045258
0.029649328 -0.15650709 0.19864877 -0.099753454 -0.13986222 0.15334749 -0.19728369 -0.075833604
-0.06474206 0.09098485 -0.2473211 -0.1988383 -0.12602827 0.17532296 0.2527805 -0.16721137
0.093752936 0.002738744 -0.0027202144 -0.023165748 0.110388406 -0.23433878 0.21640864 -0.08630098
-0.34054574 0.11443884 -0.017582921 -0.09376885 0.30774552 0.20326748 -0.083483614 -0.174318
0.19870253 0.008503848 0.16752827 -0.11491967 -0.02449938 -0.25418448 -0.17428531 0.16788916
-0.07754268 -0.12695979 -0.023038885 0.090585664 -0.106023036 -0.22728993 -0.10905276 -0.15496604
-0.058292978 0.1902152 0.026010394 -0.18048404 -0.06905523 -0.27670175 -0.49292108 -0.049268346
0.38323808 -0.2764481 0.0031526387 0.05360663 0.07844178 -0.36013243 0.06595485 0.22285925
-0.023704529 -0.19007719 -0.31371793 0.059062168 -0.022255784 -0.2787786 -0.42011985 0.023276797
-0.16978705 -0.12031378 -0.21185462 -0.07946275 0.029757302 0.044526994 0.19979812 -0.113723874
-0.15747546 -0.105472974 0.110771455 -0.10843934 -0.26430562 -0.22524928 -0.08544858 -0.1417481
-0.123717844 -0.12735824 -0.020778786 -0.05113174 -0.23175988 0.037290737 0.08115958 -0.26141822
0.14102069 -0.3470169 -0.055803016 -0.3266866 -0.010883778 -0.15525171 -0.019134635 0.21013813
0.10335712 -0.008606225 0.13465697 0.1673275 -0.13910657 0.12554334 -0.13111001 0.07548767
-0.17857781 -0.19548576 -0.09130644 -0.1508578 -0.13116646 -0.116794154 0.008686632 -0.1756474
0.03423024 -0.19468471 0.1004477 0.1072363 -0.22661664 -0.25131664 -0.24915104 0.13560392
0.121377684 -0.31257376 -0.25401732 -0.02603518 -0.016505368 0.20201144 -0.44880196 0.24191636
-0.14050603 -0.11028771 -0.23544052 -0.1363656 0.06796684 -0.2643064 -0.1176059 -0.38118944
0.02843556 -0.07872916 -0.12541158 -0.42988184 0.15474343 0.23234831 -0.2522657 0.109150365
-0.2802652 -0.24026783 -0.3057806 0.022639254 -0.27111417 -0.09752042 -0.16198958 0.07077068
0.12305996 0.05171149 0.20361817 0.18857999 0.026848288 0.1198454 -0.26756677 0.14506818
00000000: e877 b9bd 72d9 0d3e 7166 313e 7556 3b3e
00000010: 09ef 95be 77ad 8dbe 4514 39be 055d 0f3e
00000020: 3649 dd3d 6090 7cbe 9a95 b93d 7b08 71be
00000030: 38e2 9cbd 4740 953b bab0 3fbe 6b81 4a3e
00000040: 36a6 083e fbbc 6fbe 233d 513e 9488 d2be
00000050: c4c1 b33d eed6 93be 5bdb 533e b52c 4d3e
00000060: 7a94 a43d 09d6 30be 6ea2 88be e86d 883c
00000070: f269 de3d 1eaf 873d 3ff9 2fbc 90dd 46bd
00000080: c769 9ebd 9e6c 583e 640a 363d bb76 0f3e
00000090: c051 b6bc e6bf f33d 1f15 7ebe 5301 fa3d
000000a0: 9766 77bc 7f23 a5bd 175b 8dbe 45f7 433e
000000b0: 5bed a13c 9495 6f3d 38a0 4c3e 579c 54be
000000c0: 03af 81bd 95a9 1d3e 65ca b33c 969f a13d
000000d0: 344f 8fbe 3735 483e 32dc 9b3d 7631 79be
000000e0: 2a29 64be 2c29 4d3e f4c2 b43d f37f ff3d
000000f0: 76c1 45bd 5622 293e dd1d 35bd 7a18 77be
00000100: 0f0b ec3c 3099 93be 1965 69bd f35b 4bbe
00000110: ae50 2abe d390 873c 123f 1e3e a8af 08be
00000120: c19f 303e 1db0 97bd 384e 9d3d b7d0 623c
00000130: 39ce a4bd 4013 343d d799 7d3e 269a 583e
00000140: 00b1 47bb 84c3 133e d06c a83c 4dfd 833d
00000150: d7a8 dcbd b2e4 81bd f278 80be 15ba cd3d
00000160: 26e3 f23c 6543 20be 956a 4b3e 8a4b ccbd
00000170: 0b38 0fbe 2007 1d3e bc04 4abe a64e 9bbd
00000180: 7c97 84bd 4456 ba3d be41 7dbe 449c 4bbe
00000190: 8e0d 01be dd87 333e 726c 813e 7539 2bbe
000001a0: 8a01 c03d 807c 333b a045 32bb 18c6 bdbc
000001b0: 5113 e23d 81f6 6fbe 3a9a 5d3e 91be b0bd
000001c0: 035c aebe e95e ea3d 0f0a 90bc e209 c0bd
000001d0: d290 9d3e 5a25 503e 75f9 aabd 6b80 32be
000001e0: ad78 4b3e b953 0b3c 888c 2b3e 015b ebbd
000001f0: ecb2 c8bc 7824 82be d977 32be 23eb 2b3e
00000200: b2ce 9ebd bf01 02be 0bbc bcbc fa84 b93d
00000210: 9b22 d9bd b1be 68be 0e57 dfbd 6baf 1ebe
00000220: 9ec4 6ebd c6c7 423e c013 d53c cfd0 38be
00000230: d46c 8dbd daab 8dbe 2760 fcbe 9bcd 49bd
00000240: c837 c43e 9b8a 8dbe 809c 4e3b a092 5b3d
00000250: 15a6 a03d 4763 b8be 5613 873d 3735 643e
00000260: 0030 c2bc 98a3 42be a39f a0be 2ceb 713d
00000270: c351 b6bc 12bc 8ebe f319 d7be fbae be3c
00000280: a8dc 2dbe 1267 f6bd 6bf0 58be 5ebd a2bd
00000290: 96c5 f33c f061 363d e197 4c3e 10e8 e8bd
000002a0: 3f41 21be 3702 d8bd 25dc e23d 7215 debd
000002b0: 1153 87be bfa7 66be aaff aebd 6a26 11be
000002c0: c85f fdbd 336a 02be 4638 aabc 846f 51bd
000002d0: 7652 6dbe 2cbe 183d fe36 a63d 9cd8 85be
000002e0: ba67 103e 33ac b1be b491 64bd 7743 a7be
000002f0: e051 32bc 4efa 1ebe 3dc0 9cbc 732e 573e
00000300: e6ac d33d 2001 0dbc 84e3 093e e657 2b3e
00000310: f471 0ebe 6f8e 003e b441 06be 4899 9a3d
00000320: 1add 36be 6b2d 48be dffe babd 787a 1abe
00000330: 8050 06be c631 efbd 6052 0e3c e9dc 33be
00000340: 0235 0c3d 6e5b 47be 86b7 cd3d b59e db3d
00000350: 310e 68be 93ac 80be 7321 7fbe c1db 0a3e
00000360: dd94 f83d ab09 a0be 8f0e 82be bb47 d5bc
00000370: 4436 87bc 16dc 4e3e 5fc9 e5be ecb8 773e
00000380: d0e0 0fbe 86de e1bd 5217 71be 6da3 0bbe
00000390: 3332 8b3d 2b53 87be 5ddb f0bd 432b c3be
000003a0: b1f1 e83c c13c a1bd e56b 00be 7919 dcbe
000003b0: 1075 1e3e b7ec 6d3e f828 81be 3a8a df3d
000003c0: ec7e 8fbe c508 76be 468f 9cbe f575 b93c
000003d0: 7acf 8abe c9b8 c7bd 99e0 25be 38f0 903d
000003e0: dc06 fc3d 6dcf 533d 4881 503e 1d1b 413e
000003f0: f1f0 db3c 8171 f53d 83fe 88be c18c 143e

weight f4 [1, 256]
-0.046568703 0.05997537 0.056162916 0.02116804 0.009895987 0.045863982 0.02883425 0.031069914
0.004146211 0.03499417 0.01742973 0.037856784 0.057969056 0.031586874 -0.02350495 0.11319957
0.010197769 0.06012597 0.016778778 0.13949054 0.05353704 0.07589071 0.028132215 0.022855068
0.03709878 0.051056318 0.033439554 -0.07301418 0.017469639 0.02242917 0.044669073 -0.05433602
0.09595033 0.018251605 0.012412457 0.02607192 0.039542027 0.057241045 0.05811941 0.03513488
0.09654566 0.07140429 0.09020903 -0.053531032 0.044546507 0.06407325 0.020685097 0.08569364
0.042796884 0.057066385 0.025668114 0.024025647 -0.013261844 0.038875893 0.038478196 0.039638683
0.08681667 0.015360414 0.058659934 0.03205587 -0.026341524 0.022685446 -0.15982015 0.044127475
0.012575648 0.0770815 -0.29027689 0.0006309375 0.03809682 -0.052265037 0.018305946 0.03289596
-0.25353962 0.022824045 0.03269849 0.045187954 0.017935557 -0.02643758 0.010706786 0.041953377
0.043256618 0.061196245 0.034279518 0.018880539 0.08155163 0.028833752 0.02590021 0.017677885
0.03343518 0.0126860365 0.013117877 0.022247273 0.055911694 0.03497814 0.017504418 -0.052841254
0.06719086 0.04616924 0.024592463 0.0051493645 0.08676156 0.032883372 0.03570243 0.019655641
0.052353114 0.010832712 0.013043388 0.035851996 0.015556642 -0.04945431 0.09170605 0.041851327
0.007458153 0.021330481 0.022421677 0.043640696 0.042895053 -0.010802545 0.029896554 0.04060938
0.061071537 0.021453505 0.029608851 0.030334542 0.06632962 0.032603495 0.07068094 0.009406414
-0.026138412 0.08286721 -0.1138382 0.030192241 0.04904444 0.007534049 0.02175539 0.052671485
0.06511486 -0.027697956 -0.021656714 0.01761759 -0.033645898 -0.3126489 -0.2819965 0.01828268
0.051187284 0.015257839 -0.030269362 0.009440437 0.05301894 -0.06884181 0.041751884 0.055051792
-0.01634951 0.03230259 0.048066575 0.02428978 0.057052385 0.049288303 -0.04658732 0.016747609
0.027568787 0.045027196 -0.04224538 -0.006173484 0.034247313 0.015405336 0.0058570392 -0.05771005
-0.15466794 0.037629332 0.03138822 0.042281 0.05115179 0.055380072 -0.0069726896 0.029748641
0.024974238 0.05518219 0.1647148 -0.033736728 0.035760067 0.026625343 -0.16400358 0.065686725
0.061036333 0.048245825 -0.04696518 0.06403552 -0.049201615 0.046137627 0.05223234 0.02674322
0.04304174 -0.64215565 0.031554434 0.05228195 0.040187526 0.008395948 0.03973777 -0.04488293
-0.03418126 0.015010421 0.015976314 0.07566617 0.03726271 -0.033509508 0.06631719 0.03345773
0.019462314 0.10562873 0.008568064 0.016432352 0.027045516 -0.090336315 0.037038833 0.009336484
0.027033858 0.028419495 -0.14061947 0.024373163 0.04654648 0.009788641 0.24651423 0.024741786
0.036836024 0.037199926 0.05497196 0.10334283 0.040799387 0.08498758 0.0707399 0.09926901
0.037446614 0.03792256 0.006653209 0.07738844 0.031066775 0.021661486 0.013298184 0.027192099
-0.010418164 0.0245325 0.040981047 0.09540563 0.06981631 -0.27518302 0.04999205 0.052721903
0.06908067 0.032750934 0.012692831 0.009163571 0.036526676 0.04015569 0.04884797 0.03692332
00000000: d3be 3ebd bca8 753d 160b 663d 9968 ad3c
00000010: c722 223c dfdb 3b3d ce35 ec3c 5586 fe3c
00000020: f0dc 873b 0c56 0f3d cbc8 8e3c b70f 1b3d
00000030: f670 6d3d 3d61 013d 748d c0bc 2dd5 e73d
00000040: 8b14 273c a646 763d a673 893c 9cd6 0e3e
00000050: a849 5b3d 976c 9b3d 8875 e63c 8d3a bb3c
00000060: e4f4 173d 6e20 513d eaf7 083d 7588 95bd
00000070: 7d1c 8f3c 61bd b73c ebf6 363d 728f 5ebd
00000080: 9b81 c43d 6484 953c 9e5d 4b3c c794 d53c
00000090: d2f6 213d 9675 6a3d 9e0e 6e3d 98e9 0f3d
000000a0: bbb9 c53d 6a3c 923d 83bf b83d 5b43 5bbd
000000b0: 6676 363d d638 833d cb73 a93c 2680 af3d
000000c0: c94b 2f3d 71be 693d f045 d23c 6fd1 c43c
000000d0: 3548 59bc 543c 1f3d 509b 1d3d 2c5c 223d
000000e0: f0cc b13d 3faa 7b3c 6645 703d 044d 033d
000000f0: 2eca d7bc d4d6 b93c e5a7 23be 03bf 343d
00000100: 170a 4e3c e8dc 9d3d 2c9f 94be 8065 253a
00000110: 690b 1c3d dd13 56bd 5af6 953c eabd 063d
00000120: f2cf 81be 7ef9 ba3c daee 053d 0117 393d
00000130: 97ed 923c a093 d8bc 846b 2f3c 4ed7 2b3d
00000140: da2d 313d eaa8 7a3d ae68 0c3d 5cab 9a3c
00000150: 8a04 a73d c334 ec3c ad2c d43c 36d1 903c
00000160: 54f3 083d 18d9 4f3c 5dec 563c ea3f b63c
00000170: a903 653d 3d45 0f3d 6d65 8f3c 1270 58bd
00000180: 5d9b 893d f51b 3d3d 2276 c93c 00bc a83b
00000190: 0bb0 b13d b7b0 063d b63c 123d de04 a13c
000001a0: 3870 563d b07b 313c efb3 553c 8bd9 123d
000001b0: 49e1 7e3c 9a90 4abd 62d0 bb3d 4c6c 2b3d
000001c0: 8663 f43b 43bd ae3c aaad b73c 96c0 323d
000001d0: b9b2 2f3d 28fd 30bc 9ee9 f43c 0556 263d
000001e0: 2626 7a3d 43bf af3c 438e f23c 2580 f83c
000001f0: d3d7 873d 3e8b 053d 2bc1 903d 5c1d 1a3c
00000200: 3920 d6bc 49b6 a93d 0124 e9bd b855 f73c
00000210: d3e2 483d 2fe0 f63b 5c38 b23c 0ebe 573d
00000220: f15a 853d d3e6 e2bc 6c69 b1bc c452 903c
00000230: 48d0 09bd 8413 a0be d861 90be 8fc5 953c
00000240: c2a9 513d 04fc 793c 74f7 f7bc 10ac 1a3c
00000250: 632a 593d effc 8cbd 0604 2b3d fd7d 613d
00000260: 68ef 85bc b84f 043d 75e1 443d 5cfb c63c
00000270: c3af 693d 88e2 493d 58d2 3ebd 4832 893c
00000280: f0d7 e13c 706e 383d 7e09 2dbd f04a cabb
00000290: e946 0c3d aa66 7c3c 68ec bf3b 6061 6cbd
000002a0: 4661 1ebe 3721 1a3d ef90 003d d82e 2d3d
000002b0: 8a84 513d 37d6 623d 297b e4bb 6cb3 f33c
000002c0: c696 cc3c b806 623d ffaa 283e 862f 0abd
000002d0: 2679 123d 641d da3c 8ef0 27be c386 863d
000002e0: 3c01 7a3d 6a9d 453d 905e 40bd 0e25 833d
000002f0: a287 49bd cffa 3c3d 94f1 553d 9914 db3c
00000300: 894c 303d 5064 24bf 393f 013d 9925 563d
00000310: ad9b 243d 298f 093c 12c4 223d 2ad7 37bd
00000320: a601 0cbd 45ee 753c c2e0 823c ddf6 9a3d
00000330: c9a0 183d 4441 09bd 4fd1 873d f90a 093d
00000340: 6e6f 9f3c e053 d83d 1161 0c3c 249d 863c
00000350: 8f8e dd3c 3f02 b9bd 08b6 173d 0df8 183c
00000360: 1c76 dd3c 00d0 e83c 8dfe 0fbe 3aaa c73c
00000370: 86a7 3e3d 8960 203c 3a6e 7c3e 49af ca3c
00000380: 5fe1 163d f35e 183d 472a 613d 68a5 d33d
00000390: 421d 273d f80d ae3d 15e0 903d 8d4d cb3d
000003a0: 9f61 193d b054 1b3d 2a03 da3b d57d 9e3d
000003b0: c07f fe3c 6e73 b13c a0e0 593c f7c1 de3c
000003c0: f2b0 2abc 62f8 c83c bedb 273d 0764 c33d
000003d0: dbfb 8e3d cae4 8cbe 77c4 4c3d ecf2 573d
000003e0: 2b7a 8d3d d825 063d 98f5 4f3c cd22 163c
000003f0: ff9c 153d 4b7a 243d cf14 483d e83c 173d
