src/model_parameters/MNS_data_NN1.pth (torch, 137923 bytes, 9 tensors)

model.0.weight f4 [64, 6]
-0.18488297 -0.04085015 -0.33607623 0.39451396 -0.1774668 -0.4609301 0.33499366 -0.11869733
0.020908598 0.22486278 0.0063000224 -0.45746416 0.023847112 0.18728998 0.17909573 -0.30189165
0.15101513 -0.073616326 0.11325962 -0.1230606 0.29392403 -0.027542327 -0.20855157 -0.12936619
-0.0024323675 0.05075569 -0.26264134 -0.26418924 -0.24699505 0.1931799 -0.012348174 0.22905666
-0.05449343 -0.092787944 -0.0002269052 -0.12668973 0.10427884 0.046565857 0.26015094 -0.09821745
-0.099632226 0.28287035 0.07110754 0.22491632 -0.013771269 0.2682115 -0.20881778 0.110628
0.35575753 -0.065639295 0.12124455 -0.20501119 -0.052476563 -0.08353226 -0.20418747 -0.36004728
-0.30879945 0.4479125 0.21725409 -0.2017067 0.16046774 0.018100858 0.40432912 -0.2061545
-0.328437 -0.04839564 -0.02400433 -0.44963926 0.3640495 -0.055340484 0.43537584 -0.09187062
-0.0739903 0.22437929 -0.020768348 0.32467097 0.048493102 0.27665412 -0.30387202 0.29070988
0.3543107 -0.26985127 -0.20922884 0.23006673 0.025062716 -0.18374778 0.25267944 -0.29076248
0.3553977 0.2208719 0.09074884 -0.29984373 -0.1984093 0.30424044 -0.30242625 -0.051122088
-0.01290114 0.17119448 0.22786969 -0.40067303 -0.26860502 -0.042542793 0.009882321 0.100558385
-0.3259408 0.1572972 -0.1237255 -0.13943419 -0.20147304 0.1632761 0.29078037 0.17333917
-0.36564335 0.16509138 -0.1613596 0.08535324 -0.05805894 -0.3384004 0.11066677 -0.15546328
-0.16581477 -0.24872608 0.15794729 -0.24066809 -0.31898275 -0.26394042 -0.09862641 0.3562031
-0.3725455 -0.06648291 -0.26789534 -0.0126724355 -0.24234143 0.26927984 -0.23570977 -0.17803207
-0.22266068 0.016496927 -0.21455353 0.3053907 0.3803171 -0.1060037 0.020359373 -0.27550548
0.35875294 -0.20503893 0.1699203 0.3517608 -0.28786656 0.025229426 0.03177675 -0.004779469
0.30414215 0.27778327 0.019171432 0.29630348 0.1367005 -0.23449115 -0.34337687 0.28742456
0.29460546 -0.24001966 0.3008324 0.07441538 0.46197724 -0.13454343 -0.238488 -0.3865836
0.19691494 -0.23272347 -0.27752152 0.043100562 0.15541813 -0.072982654 -0.15822122 -0.12288621
-0.17899457 -0.2379669 -0.024034526 -0.21581194 -0.0023502086 -0.20671335 -0.14728174 -0.15423267
-0.07684114 -0.2906265 0.22288556 -0.24985653 -0.096456885 -0.054143466 0.13423562 0.10148329
0.0016165171 0.18815291 -0.21685712 -0.10742075 0.45103586 -0.32371733 0.38292554 -0.29148045
0.34093416 -0.18753405 0.10666117 -0.30419037 0.15117325 -0.2425028 -0.010193717 0.5130678
-0.31965637 -0.09169113 0.26803848 0.23749311 0.119161956 0.18054897 -0.355279 0.21596576
0.08431562 -0.022291943 0.30890387 -0.31782463 0.20935018 0.08329452 0.31868032 0.23389766
-0.045352932 -0.074231036 -0.033034 -0.16960768 -0.18832912 0.3914821 -0.023258757 0.14843933
-0.362516 0.006898621 0.28909352 0.21742034 0.1629136 0.037394997 -0.43206084 -0.13677712
-0.24495587 0.27528822 -0.0916467 -0.18558668 -0.08942436 0.28011113 -0.061268825 -0.17553262
0.2777965 -0.21728386 -0.16403498 0.35033488 -0.2672242 0.2599575 -0.28965282 0.1049038
00000000: f651 3dbe 7d52 27bd 2f12 acbe bcfd c93e
00000010: dbb9 35be 08ff ebbe 4a84 ab3e 9617 f3bd
00000020: 8248 ab3c 6e42 663e 6b70 ce3b be38 eabe
00000030: 055b c33c f2c8 3f3e df64 373e 8b91 9abe
00000040: b6a3 1a3e 28c4 96bd a9f4 e73d 3207 fcbd
00000050: 367d 963e 72a0 e1bc 8b8e 55be 9278 04be
00000060: 5b68 1fbb 33e5 4f3d ed78 86be d043 87be
00000070: 45ec 7cbe f4d0 453e ff4f 4abc d48d 6a3e
00000080: 8134 5fbd 9b07 bebd 67ed 6db9 f4ba 01be
00000090: 2590 d53d d7bb 3e3d 8132 853e 3b26 c9bd
000000a0: fb0b ccbd 62d4 903e d4a0 913d 7750 663e
000000b0: e3a0 61bc 0553 893e 54d4 55be ef90 e23d
000000c0: da25 b63e e56d 86bd 104f f83d 74ee 51be
000000d0: aaf1 56bd f612 abbd 8516 51be 1e58 b8be
000000e0: f61a 9ebe ca54 e53e db77 5e3e 338c 4ebe
000000f0: a851 243e 4048 943c 3a04 cf3e 2a1a 53be
00000100: e528 a8be 823a 46bd bba4 c4bc 1e37 e6be
00000110: b264 ba3e b4ac 62bd 95e9 de3e aa26 bcbd
00000120: 3a88 97bd afc3 653e 6222 aabc 463b a63e
00000130: b4a0 463d 9ca5 8d3e 1d95 9bbe edd7 943e
00000140: 3668 b53e f229 8abe 1640 56be 9d96 6b3e
00000150: 5350 cd3c 6128 3cbe 335f 813e d2de 94be
00000160: b0f6 b53e 3e2c 623e 87da b93d 1e85 99be
00000170: cf2b 4bbe 67c5 9b3e 9dd7 9abe 6565 51bd
00000180: 4e5f 53bc 9b4d 2f3e ac56 693e 0425 cdbe
00000190: 9986 89be 5a41 2ebd 75e9 213c 8ef1 cd3d
000001a0: b6e1 a6be 8412 213e cc63 fdbd d6c7 0ebe
000001b0: f34e 4ebe da31 273e 2ae1 943e d37f 313e
000001c0: 9b35 bbbe b70d 293e 733b 25be aecd ae3d
000001d0: 36cf 6dbd d142 adbe 42a5 e23d c431 1fbe
000001e0: 59cb 29be 0db2 7ebe efbc 213e b271 76be
000001f0: b551 a3be 3323 87be a5fc c9bd 4160 b63e
00000200: 49be bebe 3128 88bd 9429 89be 0ca0 4fbc
00000210: 5a28 78be 0cdf 893e e75d 71be 0a4e 36be
00000220: 2901 64be 9024 873c ecb3 5bbe 2b5c 9c3e
00000230: ecb8 c23e 7818 d9bd b3c8 a63c 0e0f 8dbe
00000240: 77ae b73e baf5 51be 96ff 2d3e fe19 b43e
00000250: 3f63 93be f1ad ce3c 5628 023d 189d 9cbb
00000260: 85b8 9b3e 9c39 8e3e 680d 9d3c 17b5 973e
00000270: 37fb 0b3e 731e 70be 18cf afbe 5029 933e
00000280: 87d6 963e b7c7 75be b406 9a3e 1767 983d
00000290: 4888 ec3e c1c5 09be 3336 74be 49ee c5be
000002a0: 12a4 493e 104f 6ebe 4d17 8ebe 378a 303d
000002b0: ee25 1f3e ee77 95bd be04 22be c4ab fbbd
000002c0: 5a4a 37be 98ad 73be 0ee4 c4bc cefd 5cbe
000002d0: f505 1abb aaac 53be 06d1 16be 2bef 1dbe
000002e0: e35e 9dbd ffcc 94be 1d3c 643e 64da 7fbe
000002f0: 308b c5bd 8ac5 5dbd 1075 093e 79d6 cf3d
00000300: 50e1 d33a 28ab 403e cb0f 5ebe 69ff dbbd
00000310: 2cee e63e 47be a5be d10e c43e ed3c 95be
00000320: ec8e ae3e ed08 40be 2c71 da3d d7be 9bbe
00000330: 29cd 1a3e a752 78be 8c03 27bc 6958 033f
00000340: 00aa a3be 8fc8 bbbd 573c 893e 6531 733e
00000350: 2f0b f43d d4e1 383e 21e7 b5be 2126 5d3e
00000360: abad ac3d 989d b6bc a628 9e3e e9b9 a2be
00000370: e55f 563e 5196 aa3d 112a a33e de82 6f3e
00000380: ffc3 39bd 7106 98bd a94e 07bd a3ad 2dbe
00000390: 59d9 40be 5870 c83e 2689 bebc 7b00 183e
000003a0: b29b b9be d40d e23b 1104 943e 70a3 5e3e
000003b0: d3d2 263e 7f2b 193d 1437 ddbe 4d0f 0cbe
000003c0: b6d5 7abe 94f2 8c3e 44b1 bbbd 6f0a 3ebe
000003d0: 1e24 b7bd ba6a 8f3e 05f5 7abd d3be 33be
000003e0: 583b 8e3e a97f 5ebe c9f8 27be 185f b33e
000003f0: 9cd1 88be 2619 853e 604d 94be ced7 d63d

model.0.bias f4 [64]
-0.2085139 0.105273545 -0.047853712 0.13861541 -0.030775547 -0.31640995 -0.041736037 0.15241627
-0.06691837 -0.36169258 -0.37174642 0.020109022 -0.23617743 0.0066140965 0.047897562 -0.4084037
0.30728206 -0.3758279 -0.12874359 -0.17259085 0.019772345 0.08100981 -0.09332792 0.24818982
0.028738568 -0.30235645 -0.0422456 0.0044147098 0.32781315 -0.31568366 0.3709829 -0.14670977
0.20235153 -0.2780034 -0.16929902 -0.19636396 -0.019319994 -0.15181603 -0.053817715 -0.30483136
-0.16323054 0.24528745 -0.16931796 0.16503347 -0.2524533 -0.38532597 -0.12583454 0.08783909
-0.22516729 -0.19014335 -0.09607649 0.05608786 -0.16196929 -0.11063999 -0.018982382 -0.19773258
-0.17774288 -0.3024686 0.23253392 0.0027405445 0.25751293 -0.09663081 0.2961555 -0.4350194
00000000: ab84 55be a899 d73d 4102 44bd 33f1 0d3e
00000010: 001d fcbc 7c00 a2be 68f3 2abd 0313 1c3e
00000020: 800c 89bd c52f b9be 8c55 bebe adbb a43c
00000030: 7fd8 71be 10bb d83b 3c30 443d 4a1a d1be
00000040: 1354 9d3e 846c c0be 5cd5 03be a8bb 30be
00000050: 9df9 a13c 79e8 a53d b522 bfbd 7925 7e3e
00000060: 256d eb3c 77ce 9abe b909 2dbd 45a9 903b
00000070: 20d7 a73e 4aa1 a1be 78f1 bd3e 163b 16be
00000080: 3d35 4f3e 7656 8ebe b95c 2dbe a213 49be
00000090: f744 9ebc a975 1bbe f76f 5cbd db12 9cbe
000000a0: e825 27be a22c 7b3e b061 2dbe 89fe 283e
000000b0: 8f41 81be 7249 c5be c5da 00be fbe4 b33d
000000c0: 4192 66be f0b4 42be c0c3 c4bd 62bc 653d
000000d0: 47db 25be 3897 e2bd f180 9bbc 697a 4abe
000000e0: 3b02 36be 2add 9abe 5f1d 6e3e b59a 333b
000000f0: bcd8 833e 60e6 c5bd b2a1 973e ddba debe

model.3.weight f4 [128, 64]
0.043870788 0.017829109 -0.044546947 -0.07936829 0.11583485 -0.071137466 7.6623066e-05 -0.0058488017
-0.14736806 -0.14184363 0.08035976 -0.09732639 -0.0038514247 0.01837747 -0.076024584 0.07699101
0.11583403 -0.0074557536 0.0071940776 0.059424207 -0.053022936 0.08056644 0.0237923 -0.07343244
-0.13878003 -0.10538457 -0.030242158 -0.09734059 -0.025268741 0.050130807 0.022599028 -0.04912889
-0.027513053 0.08354394 0.050867725 -0.09815475 -0.07443014 -0.14709862 -0.07243119 0.050510954
0.015774587 -0.09680669 -0.07191816 0.049675785 -0.022974053 -0.00044154777 0.00015653015 -0.00822053
-0.004358099 -0.043329082 -0.033671554 -0.009209018 0.038726345 0.0031290478 0.02721677 -0.120135404
-0.10747362 -0.041367732 -0.14009154 -0.019408174 -0.10656344 0.08603868 0.064948104 -0.027730167
-0.021377478 -0.018692052 0.101727955 -0.017186597 -0.0081697805 0.0056200926 0.09166139 0.009117993
-0.11726424 -0.034402072 -0.11261409 -0.09862592 0.0027305677 -0.0670004 -0.03663516 0.008197962
-0.09097766 0.047825024 0.0334572 0.05643983 -0.14657205 0.004696818 -0.029104168 -0.041863866
-0.103443444 0.12902634 -0.06682866 -0.030021096 0.020126048 -0.023658024 -0.12685089 -0.08710156
-0.09449678 0.027898734 -0.04396626 0.070233755 -0.08206004 0.05997694 -0.11774139 -0.04185139
-0.15785944 -0.027504556 0.06753237 0.0714973 -0.06966761 0.07891565 0.05365063 -0.028359776
-0.04888243 -0.037324935 -0.036717825 0.15761611 -0.07253065 0.06998492 0.002708927 0.035768755
-0.06009176 -0.036376998 -0.038142443 -0.036527116 -0.04295244 0.035335023 0.030192178 -0.038787946
-0.1789623 -0.12478212 0.023338879 -0.057697568 0.116830245 -0.084080786 0.08393738 0.084028736
0.11859399 -0.035693698 -0.01928891 0.10527865 0.055509303 0.043940973 0.06249515 0.03028182
0.024440855 0.055598367 -0.024615284 0.03775937 0.035074506 0.080029495 -0.07603402 -0.11857373
-0.0068973214 -0.1211319 0.00989393 -0.084004045 0.04049281 -0.052641407 -0.12856723 0.17282818
0.01879532 0.23365948 0.17410547 0.11878758 -0.02562139 -0.004522409 0.027581338 -0.1140758
0.11540205 0.0051430957 -0.102789715 -0.069845825 0.08940098 -0.06988992 0.03088489 -0.11777876
-0.17984574 0.046654433 -0.120068274 -0.02431569 0.04848822 -0.043478172 -0.05141659 -0.06252789
-0.029728722 0.005538332 0.13782932 0.011169912 0.04422491 0.113683686 0.02999626 0.0866977
0.075251974 0.13076532 0.0798047 0.068088345 0.009442148 -0.070793614 0.0048692646 -0.12559114
0.056549434 -0.06875192 0.1967088 0.1587052 0.045685437 0.013907358 0.08322733 0.05415412
-0.048288416 -0.13291968 0.14725317 -0.04827048 0.049896326 0.03599683 -0.05779908 0.106292106
0.10420418 0.022710292 0.11956976 0.07356081 0.08792398 -0.06491408 0.0037912088 0.07662402
0.099236704 0.046398778 0.00027014982 -0.07254886 0.17539243 0.039960627 -0.08400383 0.16524652
0.12916686 0.026447384 0.09631242 -0.036436956 -0.05000014 -0.031489618 0.031498533 0.099416316
-0.02952187 0.055729974 0.020310583 0.017565703 -0.10500884 0.014950644 0.21978828 0.18610314
0.11858122 0.18126668 -0.020239074 -0.07053581 0.06822297 -0.056733176 -0.053046517 0.10044575
00000000: dbb1 333d 5a0e 923c dc76 36bd d88b a2bd
00000010: d23a ed3d 85b0 91bd b2b0 a038 4ea7 bfbb
00000020: a7e7 16be 753f 11be a893 a43d 0f53 c7bd
00000030: 2f68 7cbb 598c 963c c7b2 9bbd 76ad 9d3d
00000040: 643a ed3d 654f f4bb 4cbc eb3b cc66 733d
00000050: 942e 59bd 0500 a53d 12e8 c23c bf63 96bd
00000060: 5a1c 0ebe ded3 d7bd 67be f7bc 815a c7bd
00000070: 6400 cfbc f655 4d3d 9921 b93c 603b 49bd
00000080: 0e63 e1bc 1619 ab3d ad5a 503d 5c05 c9bd
00000090: d46e 98bd 05a1 16be ce56 94bd 93e4 4e3d
000000a0: b539 813c 9642 c6bd d449 93bd d678 4b3d
000000b0: 1534 bcbc 8a7f e7b9 3e22 2439 67af 06bc
000000c0: 62ce 8ebb d679 31bd 2feb 09bd 6ce1 16bc
000000d0: 849f 1e3d b610 4d3b b4f5 de3c 8d09 f6bd
000000e0: 211b dcbd 3671 29bd 2874 0fbe e4fd 9ebc
000000f0: ef3d dabd 0c35 b03d 8303 853d 602a e3bc
00000100: d21f afbc 1320 99bc bf56 d03d e8ca 8cbc
00000110: 8bda 05bc c128 b83b f8b8 bb3d a263 153c
00000120: 3c28 f0bd 30e9 0cbd 37a2 e6bd 63fc c9bd
00000130: 53f3 323b 8137 89bd c00e 16bd bf50 063c
00000140: 7f52 babd 2ce4 433d 6b0a 093d 742d 673d
00000150: fc16 16be c4e7 993b dd6b eebc 7279 2bbd
00000160: 28da d3bd 7b1f 043e 77dd 88bd cdee f5bc
00000170: 62df a43c 79ce c1bc 33e5 01be 4d62 b2bd
00000180: 8787 c1bd e38b e43c f715 34bd b7d6 8f3d
00000190: 180f a8bd 61aa 753d 6622 f1bd 5d6c 2bbd
000001a0: e8a5 21be 3c51 e1bc 694e 8a3d 2d6d 923d
000001b0: e4ad 8ebd 879e a13d c3c0 5b3d c352 e8bc
000001c0: f138 48bd 08e2 18bd 6e65 16bd 1e66 213e
000001d0: f38a 94bd 4154 8f3d 4188 313b 4282 123d
000001e0: c722 76bd 0c00 15bd 403b 1cbd 759d 15bd
000001f0: e6ee 2fbd 75bb 103d 9655 f73c 1ce0 1ebd
00000200: e541 37be c58d ffbd 2d31 bf3c 4954 6cbd
00000210: b244 ef3d 8c32 acbd 5ce7 ab3d 4217 ac3d
00000220: 68e1 f23d 8e33 12bd c703 9ebc 559c d73d
00000230: b95d 633d 73fb 333d eafa 7f3d 9411 f83c
00000240: 3038 c83c 1dbb 633d fea5 c9bc 92a9 1a3d
00000250: 49aa 0f3d 81e6 a33d b9b7 9bbd c9d6 f2bd
00000260: ed02 e2bb 0014 f8bd 261a 223c 500a acbd
00000270: cadb 253d 849e 57bd 21a7 03be dff9 303e
00000280: a5f8 993c 6e44 6f3e b448 323e e746 f33d
00000290: f3e3 d1bc b730 94bb 42f2 e13c 93a0 e9bd
000002a0: e957 ec3d 6a87 a83b 6a83 d2bd 540b 8fbd
000002b0: dc17 b73d 7222 8fbd 4f02 fd3c fe35 f1bd
000002c0: 7b29 38be b818 3f3d 5be6 f5bd b331 c7bc
000002d0: 959b 463d 2b16 32bd 349a 52bd 9f0e 80bd
000002e0: a689 f3bc e57a b53b 2123 0d3e 0202 373c
000002f0: 2e25 353d fed2 e83d b7ba f53c 908e b13d
00000300: b51d 9a3d 58e7 053e a670 a33d e771 8b3d
00000310: 3db3 1a3c 3efc 90bd 5a8e 9f3b f79a 00be
00000320: 61a0 673d cecd 8cbd 086e 493e 9e83 223e
00000330: a720 3b3d b0db 633c 1773 aa3d b6d0 5d3d
00000340: 13ca 45bd 191c 08be 89c9 163e 44b7 45bd
00000350: 1760 4c3d 6971 133d babe 6cbd adaf d93d
00000360: 0069 d53d ef0a ba3c fee0 f43d 0da7 963d
00000370: 7d11 b43d acf1 84bd ee75 783b 0eed 9c3d
00000380: 9d3c cb3d a50c 3e3d e5a2 8d39 7f94 94bd
00000390: 139a 333e c1ad 233d 330a acbd 6236 293e
000003a0: 5144 043e 2fa8 d83c 723f c53d eb3e 15bd
000003b0: f2cc 4cbd 42fb 00bd 9b04 013d c89a cb3d
000003c0: d9d7 f1bc 1d45 643d 6162 a63c f3e5 8f3c
000003d0: e00e d7bd 8cf3 743c 2e10 613e d291 3e3e
000003e0: b6da f23d f99d 393e 6acc a5bc 1475 90bd
000003f0: 7cb8 8b3d 0c61 68bd 4e47 59bd 80b6 cd3d

model.3.bias f4 [128]
-0.09318811 -0.05496324 -0.05284247 -0.088700324 0.07759989 0.038823042 0.08458657 0.09616352
-0.078336306 0.047674183 -0.03438071 -0.06312597 -0.076024584 0.06464971 0.034883004 0.00046319712
-0.04588005 -0.046294365 -0.060919665 -0.06574604 -0.12163082 -0.12810034 0.07213575 -0.057991296
-0.0329579 -0.17693263 -0.13122697 -0.10283478 0.061988365 -0.06680714 -0.09127795 -0.10350674
-0.01864733 -0.004812716 -0.0008705185 0.029294621 0.040466342 0.060644895 0.01634634 -0.11519429
0.059093628 -0.15363276 0.07871831 -0.098547116 0.101023875 -0.09458285 -0.09176608 -0.0156240985
-0.0053978465 -0.014830118 0.07641303 -0.123945765 0.012814867 -0.14051312 0.04083668 0.04563392
-0.12156471 -0.03072786 -0.0417593 0.069028854 -0.061480824 -0.09713368 0.050547406 -0.010445021
0.031343896 -0.118919045 -0.13420825 0.057920095 -0.040376652 0.039604906 -0.030144688 0.047221567
0.087262385 -0.1819606 0.029210258 -0.05661655 -0.11189541 0.0011078952 -0.06305305 -0.14261688
-0.10321248 0.09317119 0.06807613 -0.116748005 0.049515195 -0.0979857 0.06967387 -0.006469373
0.053932823 0.02078183 0.12377862 -0.04615813 -0.08091568 -0.108701706 0.09954426 -0.018050121
-0.096050456 0.11240982 -0.09085871 -0.10561992 -0.0022718771 -0.045841757 0.07193322 -0.07795537
-0.037013788 0.025695873 -0.15702976 0.08674639 0.02788619 -0.0862452 0.062047835 -0.06890126
0.013042721 -0.10774237 0.018820671 0.0941506 0.064600855 -0.11320011 -0.036558215 -0.02146248
-0.13171047 0.09048078 0.041997965 -0.037269443 0.022428637 -0.02217606 -0.03608878 -0.005669341
00000000: 68d9 bebd 2221 61bd 5971 58bd 84a8 b5bd
00000010: b1ec 9e3d e904 1f3d b93b ad3d 61f1 c43d
00000020: c96e a0bd 0146 433d cad2 0cbd 3048 81bd
00000030: c7b2 9bbd 1167 843d 7be1 0e3d 44d9 f239
00000040: b8ec 3bbd 299f 3dbd e686 79bd dca5 86bd
00000050: 9419 f9bd bc2c 03be e8bb 933d 4888 6dbd
00000060: ddfe 06bd d42d 35be 5d60 06be 0b9b d2bd
00000070: 83e7 7d3d 2fd2 88bd efef babd 57fb d3bd
00000080: 49c2 98bc fdb3 9dbb 8233 64ba 46fb ef3c
00000090: 09c0 253d c866 783d c2e8 853c fcea ebbd
000000a0: 290c 723d e851 1dbe 1137 a13d 12d3 c9bd
000000b0: 9be5 ce3d a7b4 c1bd dbef bbbd 38fc 7fbc
000000c0: 6be0 b0bb 06fa 72bc 6f7e 9c3d 47d7 fdbd
000000d0: 73f5 513c ace2 0fbe 5d44 273d a2ea 3a3d
000000e0: ebf6 f8bd feb8 fbbc cd0b 2bbd 005f 8d3d
000000f0: 51d3 7bbd 06ee c6bd cc0a 4f3d 9821 2bbc
00000100: 7562 003d d48b f3bd e36d 09be 9f3d 6d3d
00000110: fd61 25bd c138 223d fef1 f6bc 676b 413d
00000120: 9fb6 b23d e153 3abe 5a4a ef3c c1e6 67bd
00000130: 6c29 e5bd cb36 913a f521 81bd 290a 12be
00000140: 1161 d3bd 89d0 be3d 7f6b 8b3d 9419 efbd
00000150: 72d0 4a3d baac c8bd 2db1 8e3d 09fd d3bb
00000160: aae8 5c3d a83e aa3c a57f fd3d 4f10 3dbd
00000170: 1fb7 a5bd 009f debd dcdd cb3d d9dd 93bc
00000180: 1ab6 c4bd 1f37 e63d 2214 babd 424f d8bd
00000190: c6e3 14bb 91c4 3bbd b951 933d 11a7 9fbd
000001a0: c59b 17bd 2780 d23c 69cc 20be 17a8 b13d
000001b0: 9471 e43c 53a1 b0bd df25 7e3d 1b1c 8dbd
000001c0: 23b1 553c 08a8 dcbd cf2d 9a3c 08d2 c03d
000001d0: 744d 843d 76d5 e7bd 11be 15bd 15d2 afbc
000001e0: 1cdf 06be fd4d b93d 0f06 2c3d d8a7 18bd
000001f0: 43bc b73c 92aa b5bc d4d1 13bd e1c5 b9bb

model.6.weight f4 [128, 128]
0.1308105 0.0121457465 -0.08738441 0.004835106 -0.058808137 -0.06789804 0.018743852 0.16040562
0.091166526 -0.02256728 0.073254965 0.040617123 -0.064644024 -0.032689653 -0.021361705 -0.06588774
0.05076418 0.14754573 0.053372998 -0.020136703 -0.04027669 -0.026714329 -0.012559711 -0.11261925
-0.08340923 -0.0020177127 -0.0429291 -0.050952382 0.11318722 0.0291597 -0.053148728 -0.0626233
0.046239533 -0.066376075 0.008777726 0.031110784 -0.04248687 -0.025201524 -0.046556093 -0.07497718
-0.04751797 -0.04750214 -0.01349277 0.04396439 0.0041485475 0.006376573 -0.11853898 -0.042341255
0.0029684766 0.067673944 0.057169117 -0.111238584 0.06467974 -0.16897127 -0.014844311 -0.09603878
0.02050734 -0.040297646 0.013444106 -0.040589787 0.08054031 0.014114238 -0.0025437712 0.0006869094
0.022769963 -0.034562968 -0.043070253 0.09593517 0.047243964 0.032191522 0.00813996 -0.06516323
-0.04814628 -0.056259736 0.030621933 -0.041074183 -0.034074206 -0.11950869 -0.09028798 -0.08996425
0.007084179 0.021072684 -0.110317886 -0.09819831 -0.042134695 -0.06835893 -0.06173199 0.009156451
0.05177046 0.018521024 0.1679806 0.105855994 -0.039886035 -0.054998785 0.06450401 0.026188944
-0.028430732 0.082687505 0.09707052 -0.06774051 0.007149413 -0.08572161 -0.020543693 -0.028290957
-0.0034346473 -0.028818196 0.013693047 0.085627906 -0.14889653 0.05144308 -0.01065944 -0.040236555
0.0045244736 -0.040738933 -0.018605882 -0.026864048 0.01636791 -0.06597178 -0.05453352 0.05314613
0.08234171 0.000865465 -0.05108119 0.06235578 0.011678992 0.0016458828 0.034012448 -0.030571511
0.029305123 0.020500442 0.03958303 -0.06878986 0.09608041 0.060135126 -0.11426181 -0.009344981
-0.09902977 -0.05706314 -0.024896432 0.009889741 -0.039229445 0.07610765 0.0094245495 -0.035866376
-0.022808254 0.0026366422 -0.002675386 -0.033498295 -0.019827494 -0.074395925 -0.02713899 0.054313723
0.06701187 -0.0028005384 -0.04586877 -0.049387824 0.02731747 -0.0017085804 0.029052267 -0.019980336
0.064994134 -0.050843004 -0.04697975 0.029414041 0.0031388046 -0.09419512 0.013473765 -0.028313175
-0.10394542 -0.0440269 -0.012647998 0.056934565 0.024687588 0.033006653 0.049145367 0.052877475
0.058477685 0.00964167 -0.09754095 -0.012925983 0.017981717 0.07893015 -0.080471955 -0.039272003
-0.09613153 0.050865952 -0.019856488 0.098408945 -0.127924 0.023728149 -0.0452235 0.08088069
0.022982195 0.035315104 0.03264277 -0.08518108 0.025060548 -0.10035377 -0.0021076102 0.041110907
-0.06681662 0.022925325 -0.0883226 -0.10845595 0.018517049 -0.06598279 0.06756088 -0.07504645
0.032616876 -0.058130395 -0.019959183 0.061142504 0.046792027 -0.03662369 -0.064635485 -0.0594157
-0.06680064 0.025478242 0.04118313 -0.046033166 -0.018118659 -0.08387707 -0.102748014 -0.054941308
0.025982954 -0.078262955 0.096701115 0.005334318 -0.04340258 -0.037715435 -0.0015576036 -0.122224726
0.009649217 0.030883117 0.015963424 -0.004054061 0.034629695 -0.046368137 0.0788419 0.07460498
-0.089973964 -0.09150992 0.036209963 -0.105345726 -0.069231 -0.018270813 -0.068201825 -0.08943986
-0.036109366 0.028949143 -0.042401846 0.09481808 0.073952205 0.05599264 -0.051741134 0.010543959
00000000: 30f3 053e f4fe 463c 99f6 b2bd cf6f 9e3b
00000010: cde0 70bd 210e 8bbd b58c 993c 5f41 243e
00000020: 84b5 ba3d 04df b8bc b306 963d 245e 263d
00000030: 1664 84bd 96e5 05bd befe aebc 27f0 86bd
00000040: 1aee 4f3d 3a16 173e a59d 5a3d baf5 a4bc
00000050: 2cf9 24bd 02d8 dabc 3fc7 4dbc eca4 e6bd
00000060: 75d2 aabd 9a3b 04bb 6dd6 2fbd 72b3 50bd
00000070: b4ce e73d 53e0 ee3c 7bb2 59bd a540 80bd
00000080: aa65 3d3d 2ef0 87bd 74d0 0f3c 0bdc fe3c
00000090: b606 2ebd 6d73 cebc 9ab1 3ebd a38d 99bd
000000a0: 34a2 42bd 9b91 42bd c710 5dbc 0114 343d
000000b0: 8af0 873b 92f2 d03b 91c4 f2bd 066e 2dbd
000000c0: c68a 423b a398 8a3d 2a2a 6a3d 0ed1 e3bd
000000d0: d076 843d ce06 2dbe 8e35 73bc fbaf c4bd
000000e0: 02ff a73c 250f 25bd ab44 5c3c 7a41 26bd
000000f0: 51f2 a43d 683f 673c 66b5 26bb b611 343a
00000100: 1388 ba3c e691 0dbd 6f6a 30bd a979 c43d
00000110: e382 413d 42db 033d 775d 053c 4d74 85bd
00000120: 0935 45bd 9c70 66bd d9da fa3c 673d 28bd
00000130: 6591 0bbd f9c0 f4bd e8e8 b8bd 2d3f b8bd
00000140: 6722 e83b 9fa0 ac3c 58ee e1bd 321c c9bd
00000150: 6e95 2cbd c4ff 8bbd afda 7cbd f004 163c
00000160: 430d 543d 67b9 973c 1b03 2c3e 07cb d83d
00000170: 8a5f 23bd 6846 61bd ae1a 843d 328a d63c
00000180: 91e7 e8bc 1158 a93d e9cc c63d 89bb 8abd
00000190: a045 ea3b d08e afbd 3f4b a8bc 70c2 e7bc
000001a0: d217 61bb 2314 ecbc cd58 603c af5d af3d
000001b0: 5578 18be fbb5 523d efa4 2ebc 16cf 24bd
000001c0: 0942 943b dedd 26bd 5d6b 98bc fe11 dcbc
000001d0: ff15 863c 361c 87bd 8a5e 5fbd c2af 593d
000001e0: c5a2 a83d 5fe0 623a 833a 51bd c668 7f3d
000001f0: 3e59 3f3c aaba d73a a350 0b3d 1b71 fabc
00000200: 4c11 f03c 8bf0 a73c d121 223d b3e1 8cbd
00000210: cec5 c43d 4050 763d 1902 eabd b11b 19bc
00000220: 1fd0 cabd 0abb 69bd 9af3 cbbc 9508 223c
00000230: 0eaf 20bd 54de 9b3d 6d69 1a3c 9fe8 12bd
00000240: 60d8 babc 84cb 2c3b 8755 2fbb 8235 09bd
00000250: 456d a2bc e45c 98bd 9652 debc 1178 5e3d
00000260: 853d 893d 3d89 37bb e4e0 3bbd e34a 4abd
00000270: e3c8 df3c 72f2 dfba 05ff ed3c cdad a3bc
00000280: a51b 853d c140 50bd d76d 40bd b7f5 f03c
00000290: 67b4 4d3b 5fe9 c0bd 11c1 5c3c 08f1 e7bc
000002a0: 56e1 d4bd 8d55 34bd 8c39 4fbc 3834 693d
000002b0: a03d ca3c fc31 073d a74c 493d 0d96 583d
000002c0: 4c86 6f3d 18f8 1d3c 8dc3 c7bd 81c7 53bc
000002d0: 654e 933c 21a6 a13d 7bce a4bd aedb 20bd
000002e0: 9ce0 c4bd d158 503d 13aa a2bc a18a c93d
000002f0: 82fe 02be 8961 c23c 473c 39bd c6a4 a53d
00000300: 2845 bc3c 92a6 103d 6db4 053d 6b73 aebd
00000310: c74b cd3c 4786 cdbd d51f 0abb e963 283d
00000320: 27d7 88bd e4cd bb3c 7be2 b4bd 271e debd
00000330: 11b1 973c fc21 87bd 5c5d 8a3d f4b1 99bd
00000340: 4699 053d 231a 6ebd 7181 a3bc 9070 7a3d
00000350: ffa8 3f3d b902 16bd 9c5f 84bd e15d 73bd
00000360: c6ce 88bd bfb7 d03c a4af 283d 468d 3cbd
00000370: 956d 94bc bec7 abbd 8d6d d2bd 230a 61bd
00000380: 34da d43c 5448 a0bd 3c0b c63d 81cb ae3b
00000390: e7c6 31bd 807b 1abd 8128 ccba f550 fabd
000003a0: c017 1e3c 97fe fc3c bac5 823c eed7 84bb
000003b0: ded7 0d3d 84ec 3dbd dd77 a13d 7fca 983d
000003c0: 4544 b8bd 8e69 bbbd e650 143d 80bf d7bd
000003d0: fcc8 8dbd acac 95bc 66ad 8bbd 3f2c b7bd
000003e0: 6ae7 13bd c126 ed3c 8fad 2dbd fb2f c23d
000003f0: 4174 973d 8a58 653d 83ee 53bd 92c0 2c3c

model.6.bias f4 [128]
0.06966798 -0.12351679 -0.06462163 -0.024030415 0.04696888 -0.009786529 -0.025900947 -0.020196734
-0.103025034 -0.12981622 0.061526284 -0.054273993 -0.03188913 -0.032112643 0.07632774 0.017833732
-0.065198004 0.058417927 -0.0061845738 -0.066532634 0.05392519 -0.072862715 -0.022403877 0.034459848
0.084768 -0.060407992 0.038024202 0.031570304 -0.1222432 0.038615745 -0.03214483 -0.050906178
-0.017800689 -0.10331518 0.09176771 0.031437453 0.0065713255 -0.036827542 0.044898115 0.039120186
0.03875067 0.04294189 -0.119293675 0.051574513 0.029572632 -0.033009768 -0.01653543 0.03381826
-0.060519204 0.09157278 -0.0060858657 -0.104343414 0.016694576 -0.10605541 0.11799152 -0.032551017
0.020585107 -0.00064316514 -0.1041018 -0.0990866 -0.0015214864 -0.021033783 -0.07086353 -0.07662451
0.059705243 0.08297903 0.011685581 0.05268421 -0.019275079 -0.02087196 -0.08407909 -0.024099326
0.08073181 0.026018951 -0.0075717517 -0.016106652 -0.086091965 0.058872633 -0.0004426826 -0.069722936
-0.059015058 0.015857741 0.023020633 -0.020620123 -0.025719058 -0.01269515 -0.068212226 0.010106811
0.011902092 0.0062695215 0.007836606 -0.01980727 -0.08404843 0.021604521 0.029333843 -0.024857419
0.004958754 -0.0055110897 0.013968724 -0.046344694 -0.014982383 0.037438516 -0.071872406 -0.14076467
-0.047901552 0.046728585 0.02829779 0.04748578 0.029574502 0.06775711 -0.10467271 -0.0061081178
-0.004395337 0.048124906 0.09603317 0.059013106 0.0076693725 0.019424193 -0.090842485 -0.050333235
-0.060892582 -0.09959729 -0.012257066 0.0899843 -0.043916974 -0.023888964 0.0018462231 -0.12922345
00000000: 16ae 8e3d 5ff6 fcbd 5858 84bd 6fdb c4bc
00000010: 7162 403d ad57 20bc 392e d4bc 9f73 a5bc
00000020: cafe d2bd 8bee 04be fc02 7c3d 684e 5ebd
00000030: 2d9e 02bd 8c88 03bd b851 9c3d 0c18 923c
00000040: 8886 85bd a347 6f3d f7a7 cabb 4342 88bd
00000050: a9e0 5c3d 0c39 95bd 5688 b7bc c525 0d3d
00000060: d89a ad3d 5f6e 77bd 44bf 1b3d dd4f 013d
00000070: a55a fabd 8b2b 1e3d 4caa 03bd ff82 50bd
00000080: c0d2 91bc e996 d3bd b6f0 bb3d 8fc4 003d
00000090: 4654 d73b 7ad8 16bd 16e7 373d 7d3c 203d
000000a0: 06b9 1e3d d6e3 2f3d 3e50 f4bd cc3f 533d
000000b0: 4e42 f23c 4035 07bd 4f75 87bc 0485 0a3d
000000c0: fce2 77bd 828a bb3d f16b c7bb 00b2 d5bd
000000d0: 10c3 883c 9433 d9bd 8aa5 f13d 3754 05bd
000000e0: 19a2 a83c 159a 28ba 5333 d5bd eaed cabd
000000f0: 9d6c c7ba 0a4f acbc e620 91bd 50ed 9cbd
00000100: 7c8d 743d e9f0 a93d e174 3f3c 66cb 573d
00000110: c5e6 9dbc acfb aabc a831 acbd f36b c5bc
00000120: b856 a53d b225 d53c 751c f8bb 19f2 83bc
00000130: fc50 b0bd 6e24 713d da17 e8b9 e6ca 8ebd
00000140: c6b9 71bd 18e8 813c c495 bc3c 88eb a8bc
00000150: c6b0 d2bc 52ff 4fbc dab2 8bbd 0a97 253c
00000160: fe00 433c 8f70 cd3b 1c65 003c db42 a2bc
00000170: 9521 acbd f7fb b03c 874d f03c c9a1 cbbc
00000180: 0b7d a23b 5f96 b4bb 13dd 643c efd3 3dbd
00000190: ab78 75bc 2159 193d d731 93bd 9d24 10be
000001a0: 6b34 44bd 7966 3f3d c4d0 e73c 7380 423d
000001b0: 3a46 f23c 3dc4 8a3d a55e d6bd 9b26 c8bb
000001c0: c206 90bb 9f1e 453d 0aad c43d bab7 713d
000001d0: 5c4f fb3b 7c1f 9f3c a00b babd 392a 4ebd
000001e0: 806a 79bd aaf9 cbbd dcd1 48bc b049 b83d
000001f0: 49e2 33bd cab2 c3bc f8fc f13a 2753 04be

model.9.weight f4 [64, 128]
-0.05668638 0.031968024 0.063653424 0.032188646 -0.02793851 -0.01231199 -0.058831617 0.041335225
-0.094442226 -0.027460407 -0.022252873 -0.0070512886 -0.014180519 -0.03672303 -0.0540864 0.03274273
0.031400423 0.042749733 0.067856215 0.057986468 0.1479957 0.20609683 -0.07355164 -0.048538398
-0.004297783 -0.04992056 -0.009997957 0.04933331 0.106031545 0.011739421 0.05561799 0.013525941
-0.0044455826 -0.09777525 -0.055898655 -0.0306298 -0.072619416 0.14813195 0.010526672 0.0034288976
-0.09014302 0.053576462 0.0069747623 -0.07772389 -0.057116117 0.0140509475 0.020482335 -0.022976011
0.15066768 0.061260324 0.100106254 0.04163643 -0.061863888 -0.009575488 -0.073785536 -0.06571368
0.06890621 0.040485788 0.086999774 0.04749973 0.06453851 -0.104014546 0.030529097 0.06465051
0.15000354 -0.023215624 0.028793035 -0.017294638 -0.09476071 0.029559104 -0.03087368 -0.005206175
-0.039175168 -0.0973291 0.0763159 0.016846828 -0.035019957 -0.018597623 -0.019668104 0.042312287
0.066390306 -0.034082558 -0.021893544 -0.025847321 -0.040007923 -0.06749774 0.020461282 0.09382945
-0.020397374 0.026173733 0.1135269 -0.029681096 0.09434028 0.017864214 -0.021531833 -0.056952722
0.09517126 -0.0139307305 0.002717588 0.053621426 -0.031230422 0.018067213 0.0190687 0.06254868
0.07179116 -0.028478181 0.022944711 0.14346781 -0.07421445 0.003836385 0.023038466 0.07404779
0.032714047 0.04065786 -0.066658914 0.08405111 0.09461738 -0.0164563 -0.057864375 -0.026372578
-0.015410986 -0.012446347 0.0489432 -0.0748405 0.04832154 0.057496548 0.016373973 0.05975553
-0.08171793 0.06282691 0.009355802 -0.0871998 -0.06704143 0.10368173 -0.09567554 -0.025352022
-0.05244515 -0.09979361 0.0065543167 0.06679411 -0.036412172 -0.021742184 -0.028203113 -0.027622884
0.036553927 -0.028061941 -0.031110454 -0.03597597 -0.027480923 0.043242145 -0.041950196 0.022975583
-0.059496786 -0.08297485 -0.04057785 0.036989074 0.022566294 -0.06959619 -0.061365042 -0.024402224
0.038100224 -0.042563163 -0.09751949 0.045451883 0.018131014 -0.06319598 0.025998067 -0.085707374
-0.09215767 0.035132032 -0.083431065 0.05881387 -0.025119193 -0.09233239 0.0025062265 -0.011618486
0.0590038 -0.024677085 0.012776532 0.031147556 0.060919434 -0.068727754 -0.090586215 -0.058782376
0.031862285 0.022997111 0.106192335 0.033608638 0.07463635 0.050441977 -0.014456371 0.0055036885
-0.06248629 0.04342784 -0.058140147 -0.047426675 -0.09625365 0.056584198 0.053427994 -0.052502226
-0.013791137 -0.07151305 -0.038465887 -0.016531734 0.0026966485 -0.05662265 0.07682828 -0.022861859
-0.08985612 0.038175255 -0.05990775 -0.13120319 0.008401873 0.028603377 0.045156717 -0.027721653
-0.053865805 0.012446977 -0.02653043 -0.070351586 -0.08917302 -0.04913873 0.052922815 -0.012517705
0.05169204 0.0073432107 0.03903072 -0.11063897 -0.057593185 0.013496229 -0.0399566 -0.03565437
0.086070605 -0.011047812 -0.06573246 0.022945162 -0.0186977 -0.07686406 -0.0877477 -0.08341751
-0.021140788 0.100201346 -0.054741144 -0.026270166 -0.01187319 -0.004965452 -0.10306416 -0.088281885
0.0007887942 0.027308352 -0.0149948625 -0.09236689 0.007659518 0.012930307 -0.096847385 -0.062122013
00000000: fa2f 68bd e7f0 023d ba5c 823d 3ed8 033d
00000010: 4ddf e4bc 3bb8 49bc 6cf9 70bd 204f 293d
00000020: ed6a c1bd a6f4 e0bc a84b b6bc 7f0e e7bb
00000030: 6855 68bc e36a 16bd b389 5dbd 3e1d 063d
00000040: bb9d 003d 581a 2f3d 33f8 8a3d 3883 6d3d
00000050: 2f8c 173e 0c0b 533e 3ea2 96bd 33d0 46bd
00000060: 6bd4 8cbb 8079 4cbd 79ce 23bc ba11 4a3d
00000070: 1127 d93d b356 403c b1cf 633d e99b 5d3c
00000080: 40ac 91bb 643e c8bd fdf5 64bd 59eb fabc
00000090: 7db9 94bd e7af 173e 1078 2c3c 5bb7 603b
000000a0: e79c b8bd fe72 5b3d 8c8c e43b b42d 9fbd
000000b0: 97f2 69bd f235 663c 92ca a73c 3038 bcbc
000000c0: a148 1a3e 1bec 7a3d 8204 cd3d f68a 2a3d
000000d0: fd64 7dbd 82e2 1cbc df1c 97bd e594 86bd
000000e0: b31e 8d3d 6dd4 253d f02c b23d 148f 423d
000000f0: c42c 843d 9405 d5bd 2818 fa3c 7d67 843d
00000100: 879a 193e b12e bebc 5fdf eb3c 7cad 8dbc
00000110: e711 c2bd ef25 f23c cdea fcbc 9098 aabb
00000120: 2476 20bd 7b54 c7bd 834b 9c3d 5c02 8a3c
00000130: 1671 0fbd 0b5a 98bc 011f a1bc a64f 2d3d
00000140: a4f7 873d 279a 0bbd 175a b3bc c3bd d3bc
00000150: 59df 23bd 413c 8abd 6b9e a73c a829 c03d
00000160: 6518 a7bc 4c6a d63c cb80 e83d c525 f3bc
00000170: 7a35 c13d f957 923c 8763 b0bc 4247 69bd
00000180: 26e9 c23d b83d 64bc 9019 323b 24a2 5b3d
00000190: f1d6 ffbc b101 943c f635 9c3c 8619 803d
000001a0: 3e07 933d 134b e9bc 8cf6 bb3c 3ae9 123e
000001b0: bffd 97bd dc6b 7b3b 2abb bc3c 5ea6 973d
000001c0: 2aff 053d db88 263d 7884 88bd fd22 ac3d
000001d0: c2c6 c13d 5dcf 86bc 3203 6dbd 4e0b d8bc
000001e0: 5c7e 7cbc c3eb 4bbc aa78 483d fa45 99bd
000001f0: cfec 453d 8081 6b3d b622 863c 37c2 743d
00000200: bb5b a7bd 65ab 803d 1449 193c cf95 b2bd
00000210: 044d 89bd 1657 d43d 8af1 c3bd 0baf cfbc
00000220: bad0 56bd 9860 ccbd 98c5 d63b 5acb 883d
00000230: ee24 15bd aa1c b2bc 370a e7bc 6349 e2bc
00000240: 92b9 153d 28e2 e5bc 5adb febc 8a5b 13bd
00000250: ac1f e1bc ad1e 313d f8d3 2bbd 4a37 bc3c
00000260: e7b2 73bd b8ee a9bd f634 26bd db81 173d
00000270: f3dc b83c 7288 8ebd e959 7bbd 2ce7 c7bc
00000280: fb0e 1c3d b656 2ebd 4cb8 c7bd c12b 3a3d
00000290: 7e87 943c e56c 81bd e6f9 d43c 5987 afbd
000002a0: 29bd bcbd 9be6 0f3d e8dd aabd d0e6 703d
000002b0: c4c6 cdbc c418 bdbd 813f 243b 765b 3ebc
000002c0: f8ad 713d 9927 cabc a954 513c 2929 ff3c
000002d0: a886 793d 23c1 8cbd 4485 b9bd cac5 70bd
000002e0: 0782 023d 7064 bc3c 5e7b d93d 36a9 093d
000002f0: f1da 983d 3f9c 4e3d 6ada 6cbc 4958 b43b
00000300: a0f1 7fbd 64e1 313d 5d24 6ebd 7942 42bd
00000310: a220 c5bd d5c4 673d 50d7 5a3d 930c 57bd
00000320: 39f4 61bc 6f75 92bd 688e 1dbd 8f6d 87bc
00000330: 41ba 303b 27ed 67bd 2558 9d3d cb48 bbbc
00000340: 7c06 b8bd a85d 1c3d d461 75bd 215a 06be
00000350: 02a8 093c a151 ea3c 40f6 383d 8518 e3bc
00000360: 64a2 5cbd 68ee 4b3c 5856 d9bc 7e14 90bd
00000370: 58a0 b6bd b145 49bd 98c5 583d 0f17 4dbc
00000380: 08bb 533d 519f f03b adde 1f3d af96 e2bd
00000390: d5e6 6bbd 4a1f 5d3c 88a9 23bd 510a 12bd
000003a0: c945 b03d e201 35bc bd9e 86bd 7ef7 bb3c
000003b0: eb2b 99bc e76a 9dbd 11b5 b3bd cdd6 aabd
000003c0: 722f adbc 5d36 cd3d 4038 60bd 8834 d7bc
000003d0: c587 42bc 3bb5 a2bb 4d13 d3bd 22cd b4bd
000003e0: 15c7 4e3a c4b5 df3c 03ad 75bc da2a bdbd
000003f0: b2fc fa3b a3d9 533c ec57 c6bd a773 7ebd

model.9.bias f4 [64]
0.06051519 -0.06373128 0.00023235288 -0.010840608 -0.044156935 -0.014545846 -0.03689038 0.066631705
-0.06678043 0.093941934 -0.080353975 -0.013453252 -0.059721865 -0.0086413445 -0.04923258 -0.0031036162
-0.06952499 -0.0729451 -0.12693046 -0.040950224 -0.03282757 -0.073311366 0.12957495 0.04676206
-0.039284114 -0.015585603 -0.07423355 0.063271046 0.05811425 -0.08863775 0.008596412 -0.028161788
-0.110644735 0.020179715 -0.034716755 -0.05663141 -0.0288105 0.07446171 0.08919657 0.048460115
-0.01339749 0.10013144 -0.03619483 -0.113755696 -0.00844189 0.0763962 0.008288445 -0.05150962
-0.08784738 0.0040914332 -0.013846706 0.06043368 -0.09605782 0.029286843 0.021595795 -0.046485603
-0.037272867 -0.034490634 0.039785832 -0.038294658 -0.018445726 -0.090019286 -0.079137385 0.04052987
00000000: c7de 773d 8c85 82bd c0a3 7339 ce9c 31bc
00000010: e7dd 34bd b351 6ebc 5e1a 17bd 3476 883d
00000020: 2ec4 88bd a164 c03d a090 a4bd 076b 5cbc
00000030: ea9e 74bd 6d94 0dbc 1aa8 49bd 0a66 4bbb
00000040: 1e63 8ebd 3e64 95bd 0ffa 01be 6cbb 27bd
00000050: 3476 06bd 4524 96bd 4caf 043e 9389 3f3d
00000060: 61e8 20bd c25a 7fbc c207 98bd 4094 813d
00000070: 3509 6e3d b587 b5bd f7d7 0c3c 8db3 e6bc
00000080: b599 e2bd ee4f a53c 2833 0ebd 56f6 67bd
00000090: ff03 ecbc 627f 983d b1ac b63d 1d7e 463d
000000a0: 2581 5bbc b611 cd3d 0841 14bd bff8 e8bd
000000b0: da4f 0abc 9c75 9c3d 42cc 073c c0fb 52bd
000000c0: 54e9 b3bd 6e11 863b 4bdd 62bc 4e89 773d
000000d0: f6b9 c4bd f6ea ef3c aae9 b03c b067 3ebd
000000e0: 6fab 18bd 0d46 0dbd 78f6 223d dcda 1cbd
000000f0: 7e1b 97bc 085c b8bd c812 a2bd a602 263d

model.12.weight f4 [1, 64]
0.07743343 0.05507738 0.06439744 0.041248146 0.03938757 -0.020313103 0.0050493274 -0.016572634
0.009646667 -0.07552277 0.014749898 0.008555189 -0.02145683 -0.12527908 -0.069839105 -0.055200163
0.040748738 0.0854137 0.021402871 -0.07729338 -0.008096296 -0.07661319 -0.110486455 0.0469262
0.014368174 0.014233534 0.03443027 -0.05554294 0.071952604 -0.05301624 0.035781726 -0.10468851
-0.012938117 -0.021097248 0.039294392 0.072759 0.017239181 -0.042915117 0.015154559 0.039235055
-0.021775687 -0.057034817 -0.009259411 -0.0037138888 0.058581226 0.024166377 -0.032349 0.052984606
0.018432345 -0.047728352 0.051047124 0.011114567 -0.007626695 -0.013940086 -0.005725912 -0.06868077
0.017319355 0.039984103 0.021657187 0.035742756 0.005462217 0.016717691 -0.063531 0.06283441
00000000: 6b95 9e3d d298 613d cee2 833d d1f3 283d
00000010: dc54 213d aa67 a6bc d474 a53b 55c3 87bc
00000020: 0e0d 1e3c afab 9abd 8ea9 713c 102b 0c3c
00000030: 3cc6 afbc 2949 00be ce07 8fbd 9119 62bd
00000040: 26e8 263d 61ed ae3d 1355 af3c fe4b 9ebd
00000050: 54a6 04bc 60e7 9cbd b946 e2bd b035 403d
00000060: 7d68 6b3c c533 693c c106 0d3d fe80 63bd
00000070: e35b 933d 8f27 59bd dc8f 123d ee66 d6bd
00000080: 65fa 53bc 23d4 acbc 28f3 203d ac02 953d
00000090: 2f39 8d3c c3c7 2fbd d44a 783c f0b4 203d
000000a0: ed62 b2bc 579d 69bd c9b4 17bc b764 73bb
000000b0: def2 6f3d 91f8 c53c 6380 04bd 6306 593d
000000c0: 6eff 963c ce7e 43bd ca16 513d df19 363c
000000d0: 5be9 f9bb f564 64bc 6ea0 bbbb 81a8 8cbd
000000e0: 52e1 8d3c 5fc6 233d 6a6a b13c ff66 123d
000000f0: 66fc b23b 8af3 883c 8a1c 82bd 54af 803d
