src/model_parameters/PersonalizedNN_model_parameters.pt (torch, 43799 bytes, 5 tensors)

weight f4 [128, 13]
00000000: fc91 6dbd 8a7d 41be 325e 4a3e a45c 3fbe
00000010: 584d 2fbe 7cd5 f1bd a8bc 22be 140b a93d
00000020: 9ae6 6c3e c429 29be c0bf 57be 704b 80bc
00000030: b494 cebd cc28 963d 4ad4 46be 5086 a5bc
00000040: f004 79be ecd7 203e 906f 5c3d 3135 83be
00000050: c03a f23b a95d 3abe 00ad 853c 688b 7fbd
00000060: c53c 863e 1eb5 4cbe 15dd f93d 0314 a13d
00000070: 3857 763e 1d69 fabd b419 2bbe 110d 303e
00000080: fc01 a1bd 7dde 84be b82f 4a3d 5d3d dbbd
00000090: 6b43 fc3b d324 e43c af8c 29be 9b5d 673b
000000a0: bf10 7f3d efab 803e 4f57 1cbe 2a0c 643e
000000b0: 3503 edbd 3097 7ebe 158c 71be ae0b 883e
000000c0: 2fef cd3d e7aa 4ebe 9515 813e 26e9 d8ba
000000d0: 70c9 09be 6e23 583e c7df 91bd c279 623d
000000e0: 1218 383e 76f1 0e3d 9952 0d3c ed08 db3d
000000f0: 1808 9bbe 08bb 353e 343b 9c3d fe55 05be
00000100: 16ee aabc 9620 9d3d 66e4 793e 083c 063e
00000110: a989 0a3e 1a29 1f3e 29c4 09be b937 0abe
00000120: aaf1 553e f283 32bd 647c 84bd 81fb 2bbe
00000130: 20d8 783e 62be 36be c932 663e d878 a23d
00000140: 5f75 5b3d fbd1 ae3d 225d 45be be86 a2bd
00000150: c0d1 b43c e283 a83d 552e 8bbe 8c2b 653e
00000160: efb1 88bc bdff 453e c780 33be 43ba 26be
00000170: 6820 f33d 5d8a 163e 7d9c b53d 2b16 51be
00000180: c64e 813d 74f7 873c c8e1 8d3a 39ef f6bc
00000190: a00f 0bbd a50e 92be 1d86 103e 62b7 363e
000001a0: fd7b 6d3e 68a8 2f3e 0170 3fbe 6896 193d
000001b0: 9fff febd 2d72 263e 0d62 263d f18f 013e
000001c0: 2412 f33d c276 3c3d 9abd 2e3e aafe fd3d
000001d0: f445 8fbe 0d8f bbbd 0d6a 9cbe e979 493d
000001e0: bbec 703d c803 863e 139a c0bd 0fe9 cc3d
000001f0: 2127 0e3e 2832 1f3e c3b9 c83c 7da5 58be
00000200: 1b64 34be 8c8c 1c3c 725c 6ebe 386c fcbd
00000210: 0285 68be 5ec7 8abd a851 613e 8057 823d
00000220: 9c63 88be 4824 5fbe 7693 a3bd 9aa8 5dbe
00000230: f675 793e 35ad 893e 1852 79be 1ff1 843e
00000240: cd90 603e bea6 0dbe 64df 5d3c 94c5 b93d
00000250: 611e f83d 6c3e 65be 820f 09be e555 99bd
00000260: 095d 38be 226e c1bd 4a3f babd 32b6 5c3e
00000270: 1fe2 83be 35d4 133e 0166 293e 9531 3c3d
00000280: c2ce 3f3e 2ecb 1abe 075a 833e 8bc2 aabc
00000290: 45df 9bbd 75b6 d0bd 33a0 59be b6b5 63be
000002a0: 8cb5 15be 6c62 8b3e b08c 493e 1224 87be
000002b0: f6bc 2c3c de98 8bbe 3c69 3a3e 8e0b 453c
000002c0: 2061 7dbe ab9d 4cbe 1df8 033d b6bf f9bd
000002d0: 8abd 563e 3fc2 97bd 2831 133e 3086 b8bc
000002e0: 5458 ba3c 4ef6 653d cc99 223e f2be 853e
000002f0: b2db 2fbe 544b 373d 9442 183c 5566 e4bd
00000300: fbd6 cb3d c297 f7bd 83d6 e93c 80f5 283d
00000310: 8889 91bd 52b5 4cbe 00eb c9bd b3c5 83be
00000320: 5023 dfbc d696 34be fdc0 843e 9062 0f3e
00000330: 8098 ac3c 2802 0d3d 80dc 0ebb a417 c7bd
00000340: b768 d7bd 17d8 1f3d 80ea 9c3d 57a0 253e
00000350: 0399 87be 09b7 403e 8542 94bc 4996 5fbe
00000360: f0a8 07be 321e 01be 4700 b6bc 4049 1cbc
00000370: 29ba f93d 3a55 993c 6b91 433e 41ea c0bd
00000380: 8793 883e e4b0 37be 6376 843e 4343 8bbe
00000390: 20ad 833e a73b f73d a859 083e 0743 04be
000003a0: a0d8 8fbd 9b84 9c3c f9ac 613d 5a4b 13bc
000003b0: eb71 a93d c21d e7bb 41b8 55be 809a 513e
000003c0: d44e 5c3d a713 0f3e 7ca1 dfbd f1a5 453d
000003d0: 32a6 5ebe e19f bf3d 07d7 8cbd 1a63 a0be
000003e0: 0f91 51be 8a6a 15be 235a 56be e2ef a6bd
000003f0: 18a1 1f3e 10ab bc3d 9e73 d6bd 68c7 5e3e
-0.05800055 -0.18895546 0.19762495 -0.18687683 -0.17119348 -0.11808297 -0.15892279 0.08254066
0.23134843 -0.16519839 -0.2106924 -0.015660971 -0.100869566 0.07332 -0.1941692 -0.020205647
-0.2431829 0.15707368 0.05381733 -0.2562652 0.0073922575 -0.18199791 0.016317844 -0.062388808
0.26218238 -0.19990966 0.12200371 0.07865145 0.24056709 -0.1222708 -0.16709024 0.17192484
-0.078617066 -0.25950995 0.049361914 -0.107050635 0.0076984665 0.02784959 -0.16557573 0.0035303596
0.06227183 0.25131175 -0.1526768 0.22270265 -0.11572877 -0.24862361 -0.23588593 0.2657141
0.10055386 -0.20182382 0.25211778 -0.0016548976 -0.13455749 0.21107265 -0.0712276 0.0552919
0.17977932 0.034898244 0.00862565 0.10695062 -0.30279613 0.17747128 0.076284796 -0.13021085
-0.020865481 0.07672231 0.24403533 0.13108838 0.13529076 0.15543023 -0.13453735 -0.13497819
0.20892969 -0.043582864 -0.06469038 -0.1679516 0.24301195 -0.17846063 0.2248031 0.07933205
0.05357873 0.08536144 -0.19273809 -0.07935856 0.022072673 0.0822828 -0.27183786 0.22379893
-0.016686408 0.19335838 -0.17529593 -0.1628199 0.118714154 0.14701219 0.088677384 -0.20418613
0.06313853 0.016597487 0.0010824734 -0.030143367 -0.033950448 -0.28526798 0.1411366 0.17843392
0.23191829 0.17154086 -0.1869507 0.037496954 -0.124510996 0.16254492 0.040620852 0.12652566
0.118686944 0.046011694 0.17064515 0.12402089 -0.27983057 -0.09158144 -0.3054966 0.04918853
0.058819514 0.2617476 -0.09404387 0.1000539 0.13882114 0.15546477 0.02450264 -0.21156879
-0.17616312 0.009554993 -0.23277453 -0.123253286 -0.22706988 -0.067763075 0.22003806 0.063643456
-0.26638496 -0.21791184 -0.0798711 -0.21646348 0.24361405 0.2688996 -0.24347723 0.2596521
0.21930237 -0.13833138 0.01354203 0.09070888 0.12115169 -0.22387093 -0.13384822 -0.07487086
-0.1800424 -0.09444834 -0.09094103 0.21553877 -0.25758454 0.1443642 0.16542818 0.045945723
0.18731216 -0.1511657 0.25654623 -0.020844718 -0.07610945 -0.10191051 -0.21252517 -0.22237286
-0.14620036 0.27223527 0.19682574 -0.26394707 0.010543099 -0.27265066 0.18204206 0.012026681
-0.24744081 -0.1998202 0.03221904 -0.12194769 0.20970741 -0.074100964 0.1437422 -0.022524923
0.022747196 0.056143098 0.15878981 0.26122242 -0.17173651 0.044749573 0.009293217 -0.11152331
0.09953114 -0.120894924 0.02854467 0.041249752 -0.0710631 -0.19991043 -0.09859276 -0.2573677
-0.027238518 -0.17635664 0.25928488 0.14002442 0.021068811 0.034425884 -0.0021798909 -0.09721306
-0.1051802 0.03902444 0.07661915 0.16174446 -0.26483926 0.18819822 -0.018098125 -0.21834673
-0.13248038 -0.12609175 -0.02221693 -0.009538949 0.1219371 0.018717397 0.19098441 -0.094196804
0.26675054 -0.17938572 0.25871572 -0.27199754 0.2571802 0.12071925 0.13315451 -0.12916194
-0.0702374 0.0191062 0.0550966 -0.008990133 0.08273681 -0.007053108 -0.20871069 0.20469093
0.053786114 0.1397234 -0.109194726 0.048253957 -0.21743086 0.09356666 -0.06876951 -0.31325608
-0.20465492 -0.14591423 -0.20932822 -0.08151223 0.15588796 0.09212315 -0.10471271 0.21755755

bias f4 [128]
00000000: ee04 19be 0824 0ebe 13c8 bb3d fa90 c6bd
00000010: a5b2 7b3e af33 33be 39b0 60be 0491 263e
00000020: 17f7 81be cc2a 493e cecf 293e 4dd0 1cbe
00000030: ff5d 2d3e 4866 993e 3bce 53be a3df 54be
00000040: c230 ab3d 2383 133e 9897 3bbe 826e 293e
00000050: 2747 44bd 66f1 7dbe 906a 3abd b25c 3fbe
00000060: df06 573e 40e8 973a 5230 023e dd3b 463e
00000070: 0049 24bb d06a 443d e22b 18be 8fb1 33be
00000080: 97a0 703e 5665 4b3e 5893 ebbc d2d3 163e
00000090: 21c4 b6bc 8dfc 813e 5c71 ed3c 022c 45be
000000a0: 9397 6b3e 144f cf3d ec91 5cbe f08a d6bd
000000b0: 896d ecbd 7e64 29be 0884 233d 6345 f53d
000000c0: c6f8 8bbe eb62 8c3e 52fe e0bd 17cd 0e3e
000000d0: 0bb5 89be b98a 44be 6991 df3d 4787 28bc
000000e0: 7c2c 8cbd 193c 84bd e0be 393e 0445 363d
000000f0: b077 d03d c7e5 473e 1c99 323e 8e7b 783e
00000100: 7023 c8bc ca95 42be eb12 a0bd 9dc6 0e3e
00000110: 3e70 1fbd ab54 6b3e 9185 873c 52c8 29be
00000120: 9a5e 65bd 36a1 3c3e 7ef6 bebd a011 39be
00000130: b833 643e dd89 8abd 1a0c 4d3d 8781 033d
00000140: d488 f73d 87c9 4ebe 2f3f 963c ae96 74bd
00000150: c89d 12be 7768 86bc 4880 893d 57b5 3cbe
00000160: 868a 0d3d 0a0d a83d 08c1 953d fac9 71be
00000170: 61b8 3c3e 0987 f4bd fc96 2cbd df17 2a3e
00000180: cc53 2f3e d08a 7bbe d40d c7bb 5fa4 3d3d
00000190: 2827 233e 6b82 1b3c ca6e 03be 6ea4 4abc
000001a0: 307f 0c3d 0fb6 1fbe 8801 43bd b9cd 87be
000001b0: cc35 5a3e e07d f63d e731 3c3e db90 ce3d
000001c0: c22c 5fbe 81c3 83be ec89 c43d 37c9 38be
000001d0: eb84 743e 556e 5b3e 6e5e 303e 6730 66be
000001e0: 5841 d53d 0616 3a3e 1903 69be 19e2 753e
000001f0: 86c8 a2bc 35ab 5cbe 1bd6 71be 53a2 643e
-0.14943287 -0.13880932 0.091690205 -0.09695621 0.24579866 -0.17500184 -0.21942224 0.16266257
-0.25383827 0.19645232 0.16583177 -0.15313835 0.16930388 0.29960847 -0.2068414 -0.20788436
0.08358909 0.14405493 -0.18319547 0.16546062 -0.04791942 -0.24799117 -0.045511782 -0.18687704
0.20998715 0.0011589602 0.12713745 0.19358774 -0.0025067925 0.047953427 -0.1486049 -0.17548202
0.2349876 0.19862875 -0.028756782 0.1472924 -0.022310318 0.25387993 0.028984718 -0.19255069
0.2300704 0.10122505 -0.2154004 -0.10475719 -0.1154433 -0.16542241 0.039920837 0.11976125
-0.27338237 0.27419218 -0.10986008 0.13945423 -0.26895937 -0.19193543 0.10916407 -0.010286159
-0.06844422 -0.06456775 0.1813922 0.044499412 0.101790786 0.19521247 0.17441219 0.24265882
-0.02443096 -0.19002452 -0.07816108 0.13942952 -0.038925402 0.22981517 0.016543182 -0.16580322
-0.055998422 0.18420872 -0.093243584 -0.1807313 0.22285354 -0.067645766 0.05006037 0.03210595
0.12086645 -0.20194064 0.018340675 -0.05971401 -0.14318001 -0.016407235 0.06713921 -0.1842855
0.034555934 0.08205612 0.073122084 -0.23612204 0.1842971 -0.119398184 -0.042136177 0.16610669
0.1712181 -0.24564672 -0.0060746465 0.046299335 0.15932906 0.009491543 -0.12835231 -0.012368305
0.034300983 -0.15596794 -0.047608882 -0.2652414 0.21309584 0.120357275 0.18378411 0.10086223
-0.21794418 -0.25735095 0.09596619 -0.18045507 0.23878829 0.21428807 0.17223522 -0.22479402
0.10412854 0.18172464 -0.22755088 0.2401203 -0.019871008 -0.21549685 -0.23616831 0.22327547

weight f4 [64, 128]
00000000: d008 dd3c 048c f73c a87e b63c 4a92 babb
00000010: 64cd 043d 29cd 69bd 9648 b2bd a0d2 43bc
00000020: 4eee 23bd 2730 9dbc 88c1 293c d9c8 c1bd
00000030: 06a1 62bd 4148 b43c a192 95bc e3f3 b13d
00000040: a5ab 8c3c 86c4 99bd 3bed 37bd 8ba0 6dbd
00000050: ab5b 84bd e15e a93d 5820 a43c 8b40 99bd
00000060: 1355 453c 2e4b 82bd 30ed 6abb 8274 7cbd
00000070: 00e0 36bb 596a a73d 5891 b3bd 8d8a c1bd
00000080: 538f dc3c 8d3b 35bd 995b 30bd 1091 d4bd
00000090: c18d 84bd 34e4 b33c 60d1 813d 8d63 213c
000000a0: 02ed a33d 2c22 5bbd 2c4b 453d 0990 c43c
000000b0: 954a 1e3d cc5e 94bc afcf 203d b721 243d
000000c0: 706a 88bc 8a39 743d e06b a03b c7f6 72bd
000000d0: 209e 7ebb 5ea6 93bd 7bf5 26bd 4afb 7bbd
000000e0: e355 fc3a 38bd 273d 3135 a1bd 49de 723c
000000f0: f8d4 7bbd ec1c 16bd a67f 08bd 364e e2bc
00000100: e4d4 fc3c 489d d53c b965 66bd 77c3 31bc
00000110: 891a 99bd a000 7cbd 3652 4f3d 5be8 88bd
00000120: f57c 963d b2d2 6f3d 2c66 0cbd ba5e 6d3d
00000130: ba01 6b3c 7445 73bd 40a0 5e3d 5b78 7b3d
00000140: c21f a1bd c234 7c3d 0cc9 84bd 5f3c 683c
00000150: 9655 2f3d f54d 443d 3947 e3bc 76ae 4a3d
00000160: 4b7e a6bd e106 41bd 0c97 cc3c 523a a2bd
00000170: a3db fd3c b82c 2abd e0a8 2bbc 489f b3bd
00000180: e799 afbc 1ae7 6ebd f5a8 c23c 7786 f73c
00000190: 08d6 a4bd 2256 3b3b 4592 42bd 31f4 a8bc
000001a0: 9e4e 873c b266 09bc d3f8 9fbd 4449 87bc
000001b0: ac66 033d 5bba 903c 6932 b5bd 966f b73a
000001c0: d4d4 f73c 4db4 9e3d 69f5 06bc c975 07bd
000001d0: f01e adbd e1a0 81bd 24a2 59bd 3149 d73a
000001e0: a9db 9abd ea68 a0bd 95cf 943d 1466 26bd
000001f0: 1b40 9bbd 123b 91bd 77b9 b13d 35f4 bbbc
00000200: abee 9dbd c857 5fbc bcc3 d2bc 0404 9a3d
00000210: aba7 a9bd 53ea 49bd 6195 4a3b 7e70 60bd
00000220: a541 533b ff56 41bd b5ae 3ebd daf0 173c
00000230: 5787 93bd a696 82bd 7edd 4dbd 5603 7cbd
00000240: 9f76 bbbd e2d7 f0bc 45cf 2abd 9542 84bc
00000250: 953c 813b 984e e9bc 1878 9cbd a9f8 56bd
00000260: 1958 78bd cd06 aa3c f0d1 2b3d 4118 4c3d
00000270: 9b31 863d 7178 9b3d aaab 58bd f5cd cfba
00000280: bf07 313d f1ef a43d a7c5 21bd bbb7 913d
00000290: 8dc0 17bd 3502 12bd 75c8 163d 27cc d63c
000002a0: 67ea 16be 519f 3ebd e215 1abd edb6 c5bd
000002b0: 3e92 e6bc dc47 adbc 2645 533d 7ded 803d
000002c0: 3fa5 fdba 3763 0fbd f418 93bc 7b9e c53d
000002d0: 4f9a ab3d 4ad0 31bd f18c 09bc 1d0c e3bc
000002e0: 3658 c23c bdfc 4d3d 0585 fabc 2cc9 a0bd
000002f0: 10dd abbb 9ab2 1d3d b746 c2bd e9dd 95bd
00000300: 1688 403d 599e b4bd 19ae 38bd 38c2 8abc
00000310: 245d 94bc 45bd 963c 3afb 64bc 2784 1a3c
00000320: 7e47 61bc b8d3 bb3c 9677 60bd 507c 0e3c
00000330: 20b1 b7bc e10b 82bd a964 033d dc81 93bd
00000340: 6a43 9abd 265e 233d e35a a0bd b36b bb3d
00000350: 01da a1bc f3bf 1abd 2d6d dd3c 90e0 85bd
00000360: 16ba 873d 2ac4 6f3b 7f12 193c 3724 933d
00000370: 0cc5 7d3d 0602 183d 5084 fa3c ef43 503d
00000380: 16ac 1d3d 7ea8 ac3c fa48 a0bd eeda 4cbd
00000390: be2a dabb d39d 98bd d02d 08bc e325 2a3d
000003a0: 40cc b5bd 1e1f bd3d 7671 6dbd 1327 b13d
000003b0: 48d9 34bc dc25 223b 5f2b 833d 14bd 853c
000003c0: 542e 39bd f4d5 e63c 8def 77bd f33d 983d
000003d0: 52fb 64bd b222 823c 5739 aebd c0c5 8a3d
000003e0: 21a5 0c3d 4ff1 5bbd 646c 533c a37e 223d
000003f0: 40c3 6fbd 8673 d2bc 6627 323d 1560 8abd
0.026981741 0.030218132 0.022277191 -0.0056937085 0.03242244 -0.05708042 -0.08705251 -0.011952072
-0.040022187 -0.019188 0.010361083 -0.09462137 -0.055329345 0.02200711 -0.018258395 0.08689096
0.01717169 -0.07508187 -0.044903975 -0.058014434 -0.06462797 0.0827005 0.020034954 -0.07483014
0.012044209 -0.06361996 -0.0035846941 -0.061634548 -0.002790451 0.08174581 -0.087679565 -0.094502546
0.026923811 -0.044246245 -0.043056104 -0.10379231 -0.0647235 0.021959402 0.06338763 0.009850395
0.0800419 -0.053499386 0.048167393 0.023994463 0.038645346 -0.018111609 0.039260563 0.040071215
-0.016652316 0.059625186 0.004895672 -0.059317376 -0.0038851574 -0.072094664 -0.040761452 -0.061518945
0.001925167 0.040951937 -0.078714736 0.014823505 -0.0614824 -0.036648676 -0.03332486 -0.027625185
0.030863233 0.026075974 -0.056249354 -0.010849825 -0.07475764 -0.061524034 0.05061551 -0.06684943
0.073480524 0.058550544 -0.034277126 0.057951666 0.014343673 -0.059392408 0.054352045 0.061394077
-0.078673854 0.06157375 -0.06483659 0.01417455 0.04280623 0.047925908 -0.027743923 0.049482785
-0.08129557 -0.0471257 0.024974369 -0.0792128 0.03098852 -0.041546553 -0.010477275 -0.08770615
-0.021435691 -0.058325864 0.023762206 0.030215485 -0.08048636 0.0028585275 -0.047502775 -0.020624252
0.01651698 -0.008386301 -0.07811131 -0.016514428 0.032080337 0.017666986 -0.088475056 0.0013995047
0.030252852 0.077492334 -0.008237221 -0.033071313 -0.084531665 -0.06329513 -0.053133145 0.0016425011
-0.07561428 -0.07832511 0.07266156 -0.040624693 -0.075805865 -0.07091345 0.08677953 -0.022943595
-0.07711538 -0.0136317685 -0.025728099 0.07520297 -0.08283933 -0.049295735 0.003091179 -0.05479478
0.0032235172 -0.047202107 -0.046553332 0.009273732 -0.072035484 -0.0637639 -0.05026006 -0.06152662
-0.091534846 -0.029399816 -0.041701574 -0.01614503 0.0039439895 -0.02847986 -0.076400936 -0.052483235
-0.06063089 0.020755196 0.04194826 0.049827818 0.0655243 0.07591332 -0.052898087 -0.0015854227
0.043220278 0.08053578 -0.039495137 0.07115122 -0.037048865 -0.035646636 0.036812264 0.026220394
-0.14737855 -0.046538655 -0.037618525 -0.09654031 -0.028145906 -0.02115243 0.051579617 0.06295297
-0.0019351615 -0.035006728 -0.017956235 0.096493684 0.083790414 -0.04341153 -0.008395419 -0.027715737
0.023723703 0.050289858 -0.030581007 -0.078508705 -0.0052448586 0.038500406 -0.09486144 -0.07317717
0.04700478 -0.08819265 -0.045087907 -0.016938314 -0.01811082 0.018400798 -0.013975913 0.009430922
-0.013749955 0.022928104 -0.054801546 0.008696631 -0.022423327 -0.06349922 0.03207842 -0.07202503
-0.075323895 0.03988471 -0.07829835 0.09151401 -0.019757273 -0.037780713 0.027029598 -0.065369725
0.0662729 0.0036585429 0.009342789 0.07184642 0.061955497 0.037111305 0.03058067 0.050846037
0.038494192 0.021076437 -0.07826419 -0.050013475 -0.0066579273 -0.074519776 -0.008311704 0.041540038
-0.08876848 0.09234451 -0.057969533 0.08650031 -0.011038132 0.0024741804 0.06404757 0.016325511
-0.045210198 0.028178193 -0.060531188 0.07433691 -0.05590374 0.015885685 -0.085070305 0.06775999
0.034337167 -0.053696927 0.01290426 0.03967155 -0.058535814 -0.025689851 0.043494605 -0.067566074

bias f4 [64]
00000000: b2df 4fbd b643 613c 465f 593d a515 003e
00000010: dbee 113e 15f5 1cbd 524f e0bc 2ee8 dabd
00000020: cdf6 143e 3532 033e af36 04bd 14af 243e
00000030: fe80 d13d 49a0 193e ac57 eebd b5ec 8cbc
00000040: a92e dd3d 3c4e 713e 2bf7 393e f691 cdbd
00000050: 62c9 373d 2709 e7bd da85 573e ede0 f03d
00000060: d4a5 ca3d 2409 323e 8b9f 023e 4271 01be
00000070: e6a2 293e 3b48 923d f7ef 103e 9a3c 29bc
00000080: cd86 5a3e cd55 b93b 7f8a fb3d 28a5 6bbd
00000090: fb77 91ba 6129 6b3e afe6 2f3d aa1d 36bb
000000a0: 667a 143e 56d2 63bd ca65 2b3e bfbc e0bd
000000b0: 3dc9 823e c561 aabd ee6d e0bd 2934 c53d
000000c0: 7f5b d93d 319e d3bc 04ef 3ebd 3e81 0fbd
000000d0: c739 063e d59c a83d 853d eebd 2517 783d
000000e0: e1fb a23c a6af 753d cac2 d9bd 3e8c 183d
000000f0: c657 1ebc b797 2e3e 961d a33d 6b78 903d
-0.05075044 0.013749054 0.053069375 0.12508257 0.14251272 -0.038319666 -0.027381573 -0.10688816
0.14547272 0.12812121 -0.032278713 0.16082412 0.102296814 0.1500255 -0.11637816 -0.017202714
0.10799915 0.23565 0.18160693 -0.100376055 0.044869788 -0.112810425 0.21047154 0.11761651
0.098949105 0.173863 0.12756173 -0.1264086 0.16566047 0.07142683 0.1415404 -0.01032939
0.21340485 0.00565598 0.122822754 -0.057530552 -0.0011098379 0.22965004 0.042944606 -0.0027788677
0.14499816 -0.055620514 0.16738048 -0.109735005 0.25544158 -0.08319429 -0.109584674 0.096290894
0.106131546 -0.025832267 -0.04661466 -0.035035364 0.13107978 0.08233038 -0.11632828 0.060568947
0.019895496 0.059981965 -0.10632856 0.03724312 -0.0096644815 0.17050062 0.079646274 0.07054218

weight f4 [1, 64]
00000000: d736 99bd 0b78 7b3d a77a 67bd 6563 0b3d
00000010: d33b a73c 9880 d1bd b18e 0fbd e4c5 9dbd
00000020: 3c07 663d 95fc 883c 75ea b2bd 9b66 0a3d
00000030: e452 b13c 7207 533c 597e babd 81a6 65bd
00000040: 6f97 0d3d 39f0 9c3c 240d e93c f8f6 5abd
00000050: 7d3c 813d b032 debc f630 953c d69f ef3c
00000060: 0dbb 883d e9f9 003d 4c8f ae3c 53bb 8fbd
00000070: 8640 b63c 29af 8f3c 66c0 293d e417 163d
00000080: 4682 8e3c 229c 9b39 34a9 453d 9005 9bbd
00000090: 76f6 6dbd 7479 893c 4c38 9e3d b541 afbd
000000a0: 5dad db3c da1c babd 8a82 a83c adf9 87bd
000000b0: d46c 8e3c 63dc 58bd 5ead 5ebd 9622 b23c
000000c0: 72e9 073d d639 a3bd 1d97 87bb 43e2 9ebc
000000d0: 47b8 313d a200 993c 17f9 08bd 05ff 163d
000000e0: 3708 043d db67 ad3c bcf5 94bd f992 69bd
000000f0: 1d81 93bd 3eeb c03c 9824 383c 11e3 993c
-0.07481163 0.06139378 -0.056513455 0.034030337 0.020414269 -0.102296054 -0.03504819 -0.0770376
0.056159243 0.016722003 -0.087361254 0.03378926 0.02164597 0.012880193 -0.0910613 -0.056066994
0.034568246 0.019157516 0.028448649 -0.053458184 0.06310365 -0.027123779 0.018211823 0.02925102
0.06676302 0.031488333 0.021308564 -0.07018151 0.022247564 0.017539578 0.04144325 0.036643878
0.017396104 0.00029680232 0.048257068 -0.0756942 -0.05809637 0.016781546 0.077255815 -0.085574545
0.026816064 -0.09087534 0.020570058 -0.06639419 0.017385878 -0.052944552 -0.054364555 0.021745007
0.033181615 -0.07970016 -0.004137887 -0.019395 0.04338863 0.01867706 -0.033440676 0.0368643
0.032234397 0.021167686 -0.072734326 -0.05702493 -0.07202361 0.023549672 0.011239193 0.018785032
